weights/OneStepFormer/DANCE/dance_ckpt.pth.tar (torch, 448295 bytes, 205 tensors)

enc_embedding.weight f4 [32, 4]
0	0xbeb2c2bb	-0.34914193
1	0x3ce4ea39	0.027943717
2	0xbeb84a36	-0.35994118
3	0x3ea120d9	0.31470373
4	0xbe3c24aa	-0.18373361
5	0xbeb3ad53	-0.35093173
6	0xbda62351	-0.08112205
7	0x3caaa658	0.020831272
8	0x3ea925b8	0.3303659
9	0xbe033327	-0.12812482
10	0xbe088991	-0.13333727
11	0x3e42bbb8	0.19016922
12	0x3dd58196	0.10425107
13	0x3e927123	0.2860194
14	0xbd14a054	-0.036285713
15	0xbea5c942	-0.3238011
16	0x3ea647a7	0.3247654
17	0x3deba58c	0.11506185
18	0xbe4a2fdd	-0.19744821
19	0x3e270db2	0.16313818
20	0x3d95761d	0.07297919
21	0x3e052b2a	0.13004747
22	0x3ee5d014	0.44885314
23	0x3e8f80bc	0.28027904
24	0xbd582493	-0.052769255
25	0x3e183b59	0.1486639
26	0x3e8fa908	0.28058648
27	0x3e88f5d0	0.2675004
28	0xbe8ce3bd	-0.275175
29	0x3e763f01	0.24047472
30	0x3e7ed8a3	0.24887328
31	0x3eb03235	0.34413305
32	0x3e62eb35	0.22160037
33	0x3dac447e	0.08411501
34	0xbddb13c6	-0.10697131
35	0x3dfb365f	0.1226623
36	0xbcbb40b0	-0.022857994
37	0x3da2ece6	0.07955341
38	0x3e87bf7d	0.2651328
39	0x3e08eb25	0.1337095
40	0x3edf5b6e	0.43624443
41	0xbe88c2a4	-0.26711
42	0x3e201c16	0.15635714
43	0x3e9ca5ab	0.30595145
44	0xbe1f2601	-0.15541841
45	0x3e7a539f	0.24445961
46	0x3ec2506c	0.37951982
47	0x3ed66ad4	0.41878378
48	0x3ea205d1	0.31645063
49	0xbe280875	-0.16409476
50	0xbe1ea21b	-0.15491526
51	0xbe73932a	-0.23786607
52	0x3eb51c7f	0.35373303
53	0xbd3a7b93	-0.045528006
54	0x3edd05ec	0.4316858
55	0xbe390d15	-0.18071397
56	0x3e8153ca	0.25259238
57	0x3ed1c36f	0.40969416
58	0x3eb6aac5	0.35677162
59	0x3edff643	0.4374257
60	0xbd8ab2af	-0.067723624
61	0xbe986d42	-0.29770857
62	0xbeb44af9	-0.3521345
63	0x3e04f108	0.12982571
64	0x3e32d9f8	0.17465961
65	0xbc6003a1	-0.01367274
66	0xbd8e9dfc	-0.06963727
67	0x3e7f5c61	0.24937584
68	0xbe94ab0f	-0.29036757
69	0xbe1427ef	-0.14468358
70	0xbd48e400	-0.049045563
71	0x3ecf4fd0	0.4049058
72	0x3e218f13	0.15777235
73	0xbe0a245f	-0.13490437
74	0x3e3fa14b	0.18713872
75	0xbebb5e38	-0.3659532
76	0x3d36604c	0.04452543
77	0xbdbdcf08	-0.09268004
78	0x3de1428b	0.1099902
79	0x3dec16e0	0.115278006
80	0xbd3db6be	-0.046316855
81	0x3e861bef	0.26193187
82	0xbe01634e	-0.12635538
83	0x3de880a0	0.11352658
84	0xbe42b550	-0.19014478
85	0xbed8b10a	-0.4232257
86	0x3dff8fd6	0.124786064
87	0xbe14e097	-0.14538799
88	0xbe16997f	-0.14706992
89	0x3e83e871	0.25763276
90	0xbdbc7178	-0.0920133
91	0x3e8876c9	0.26653126
92	0xbd85eab4	-0.06538907
93	0x3ecb70d6	0.39734524
94	0xbeffe1d6	-0.49976987
95	0x3e892566	0.26786345
96	0x3e59b7d1	0.21261527
97	0xbeabc99e	-0.3355226
98	0x3e4fec99	0.20305099
99	0x3e8719c3	0.26386842
100	0x3d77225e	0.06033551
101	0xbdd6147c	-0.10453126
102	0x3d3c33ca	0.045947827
103	0x3e641eb9	0.22277345
104	0xbe949bdc	-0.2902516
105	0x3e45a8bc	0.19302648
106	0xbec710fa	-0.3888014
107	0x3e257fb6	0.16161999
108	0x3e4d0704	0.20022207
109	0x3e0bf2a5	0.1366678
110	0x3e075b03	0.13218312
111	0x3dbf0c00	0.09328461
112	0xbe7269e6	-0.2367321
113	0xbe94fc6c	-0.29098833
114	0x3e208960	0.15677404
115	0xbe3b918e	-0.18317243
116	0x3ea5a175	0.32349744
117	0xbdd29170	-0.10281646
118	0x3e73eee4	0.23821598
119	0xbea3ca03	-0.3199006
120	0x3d9a511f	0.07535004
121	0x3934ce66	0.00017243027
122	0xbeb6c979	-0.35700586
123	0xbec345b2	-0.3813911
124	0x3e92fd3b	0.28708825
125	0x3e43d2dc	0.19123405
126	0xbd9302af	-0.07178246
127	0xbe3d2675	-0.18471701

enc_embedding.bias f4 [32]
0	0x3e36c087	0.17846881
1	0xbe5e3df1	-0.21703316
2	0xbef74942	-0.4829808
3	0x3e775be4	0.24156147
4	0xbde74c7b	-0.11293884
5	0xbeb10937	-0.34577343
6	0xbe5aecf2	-0.2137945
7	0xbe858f08	-0.26085687
8	0x3d6a6c49	0.057232175
9	0x3ec07b87	0.37594244
10	0xbeca9d58	-0.3957317
11	0x3cba8dd2	0.022772703
12	0xbeda650d	-0.4265522
13	0xbcfc24cc	-0.030779265
14	0xbeab813e	-0.3349704
15	0xbd71186d	-0.058861185
16	0xbd75864e	-0.059942536
17	0x3e308bf4	0.17240888
18	0x3ec042ba	0.37550908
19	0x3eec9baf	0.46212527
20	0x3dffc4d6	0.12488715
21	0xbe01396b	-0.1261956
22	0xbde18935	-0.11012498
23	0x3cb595c3	0.022166139
24	0xbd3c4275	-0.045961816
25	0x3eadabd7	0.33920166
26	0x3ebbf40f	0.3670964
27	0xbe93f973	-0.28901252
28	0x3ec05da3	0.3757144
29	0x3eacb130	0.33728933
30	0xbf064c32	-0.52460015
31	0x3e6a5765	0.22884901

dec_embedding.weight f4 [32, 4]
0	0x3d0321be	0.0320146
1	0x3ec735ef	0.38908336
2	0xbeb59eac	-0.3547262
3	0xbee47cf2	-0.44626576
4	0xbbd86d97	-0.006604861
5	0x3ca65ecb	0.020308873
6	0xbeafbc5b	-0.3432339
7	0x3ea52790	0.32256746
8	0xbe83cb4d	-0.25741044
9	0xbe8227ac	-0.25420892
10	0xbe7fb956	-0.24973044
11	0xbd7ec313	-0.062197756
12	0x3e582981	0.21109582
13	0xbd5870d1	-0.052841965
14	0xbdeb04dc	-0.11475536
15	0xbb19bea3	-0.0023459576
16	0x3d003cc2	0.031307943
17	0x3e098521	0.13429691
18	0x3e96e2ec	0.29470003
19	0xbe03af11	-0.12859751
20	0xbe9d80c8	-0.30762315
21	0xbec7a809	-0.38995388
22	0xbbe294de	-0.006914719
23	0x3ed165ee	0.4089808
24	0xbec83db4	-0.39109576
25	0x3e18f1b2	0.1493595
26	0x3e87f0fc	0.26551044
27	0x3ec5aed1	0.38609937
28	0xbed9dcda	-0.4255131
29	0x3e6bc6da	0.23025075
30	0x3ed48fc1	0.41515926
31	0x3dec175b	0.11527892
32	0xbeab7eac	-0.3349508
33	0xbe0dda84	-0.13852888
34	0xbec75ea0	-0.3893938
35	0x3e62f412	0.22163418
36	0xbeb413b8	-0.35171294
37	0x3c908d70	0.017645568
38	0xbe1c72a5	-0.15278108
39	0xbdf36a0c	-0.11885461
40	0x3ec02a2e	0.3753218
41	0x3dcfc899	0.10145683
42	0xbe5722f6	-0.2100943
43	0x3e93695b	0.28791317
44	0xbb8dbaae	-0.0043252325
45	0x3e566953	0.20938616
46	0x3ea16666	0.31523436
47	0x3dca8b75	0.098898806
48	0x3d5f4821	0.054512147
49	0x3e727b9f	0.2367997
50	0x3e80497a	0.25056058
51	0x3e1aef7a	0.15130416
52	0x3df7da14	0.12102142
53	0x3e53f275	0.20697959
54	0xbc8f745d	-0.017511541
55	0xbb5e14ca	-0.0033886903
56	0x3d728bbe	0.0592153
57	0xbe13d0ce	-0.14435121
58	0x3e5a0a12	0.21292904
59	0xbde8688e	-0.11348067
60	0xbe1b2862	-0.15152124
61	0x3e6d4f98	0.23174894
62	0x3e92d900	0.28681183
63	0xbead902e	-0.33899063
64	0xbe027f8b	-0.12743966
65	0xbed20308	-0.41017938
66	0xbccafcdf	-0.024778781
67	0xbd3d2442	-0.046177156
68	0x3ef34fd7	0.4752185
69	0xbe9ffe81	-0.3124886
70	0x3e67407a	0.2258319
71	0x3da384e5	0.07984332
72	0xbe212c2c	-0.15739506
73	0xbd83d988	-0.06437975
74	0xbe34217c	-0.17590898
75	0x3e73999c	0.23789066
76	0x3e84e8f0	0.25958967
77	0xbe995b5f	-0.29952523
78	0x3e8c3401	0.27383426
79	0xbdeb7d7e	-0.11498545
80	0x3ec02bee	0.37533516
81	0x3e050a46	0.129922
82	0xbed9f0fc	-0.4256667
83	0x3e3f01e4	0.18653065
84	0x3cce5911	0.025188955
85	0x3ebb19c7	0.36543104
86	0xbe1ad573	-0.15120487
87	0xbeba58ce	-0.36395878
88	0xbe40ee62	-0.18840936
89	0x3e7db9d8	0.24777925
90	0x3e9012b6	0.28139275
91	0xbdff5f57	-0.124693565
92	0x3de1d7c1	0.1102748
93	0xbedaf061	-0.4276152
94	0x3ea4e369	0.3220475
95	0x3e30eefc	0.17278665
96	0x3c183180	0.0092891455
97	0x3cc186ad	0.023623789
98	0xbd34c836	-0.04413625
99	0x3eb39739	0.3507631
100	0x3de86459	0.11347265
101	0x3d8d846b	0.06910022
102	0x3cdbab22	0.026815
103	0x3e97e2d5	0.29665247
104	0x3e8cd222	0.2750407
105	0xbed2a20e	-0.41139263
106	0xbe65644c	-0.22401541
107	0x3ed68616	0.41899174
108	0x3bf2779f	0.007399514
109	0xbe80f051	-0.25183347
110	0x3e736083	0.23767285
111	0x3ebe1e9e	0.37132734
112	0xbe816de8	-0.25279164
113	0xbebf0d71	-0.37314942
114	0xbeb23621	-0.34806922
115	0x3ef29a85	0.47383514
116	0xbea98745	-0.33111015
117	0x3de3e0ab	0.111268364
118	0x3e730207	0.23731242
119	0x3d45bdd0	0.048276722
120	0xbd6d9d11	-0.05801112
121	0x3e95bbd6	0.2924487
122	0xbe040aa2	-0.12894681
123	0x3e8b6683	0.27226648
124	0xbe6ce618	-0.23134649
125	0xbeae2e9e	-0.3401994
126	0xbe39fa03	-0.18161778
127	0x3c66cffc	0.014087673

dec_embedding.bias f4 [32]
0	0x3e362734	0.17788392
1	0xbe5b4722	-0.21413854
2	0xbe8eec15	-0.2791449
3	0x3eb973aa	0.36221057
4	0xbeada423	-0.3391429
5	0xbdec8ca0	-0.115502596
6	0xbbb3ec64	-0.0054908264
7	0xbdb3d169	-0.08780176
8	0xbec674a5	-0.38760868
9	0x3e139506	0.14412317
10	0xbea05213	-0.31312618
11	0xbeef2115	-0.46704927
12	0x3ec0e998	0.37678218
13	0xbe262aec	-0.16227311
14	0xbe37ce50	-0.17949796
15	0xbdaa3193	-0.08310237
16	0xbeb6fbd0	-0.35738993
17	0xbecd0754	-0.40044653
18	0xbdc62227	-0.09674483
19	0x3dab07c8	0.083510935
20	0xbe1b24a8	-0.15150702
21	0xbeb32fd6	-0.34997433
22	0xbdac3e23	-0.08410289
23	0x3df79188	0.12088305
24	0x3bda09ee	0.0066540157
25	0xbf096215	-0.53665286
26	0x3df696fd	0.120405175
27	0xbdb1a3ae	-0.086737975
28	0x3e12b1fe	0.14325711
29	0x3d836660	0.06416011
30	0x3d35233e	0.044223063
31	0x3e6d8907	0.23196803

pos_proj.pe f4 [1, 40, 32]
0	0x00000000	0.0
1	0x3f800000	1.0
2	0x00000000	0.0
3	0x3f800000	1.0
4	0x00000000	0.0
5	0x3f800000	1.0
6	0x00000000	0.0
7	0x3f800000	1.0
8	0x00000000	0.0
9	0x3f800000	1.0
10	0x00000000	0.0
11	0x3f800000	1.0
12	0x00000000	0.0
13	0x3f800000	1.0
14	0x00000000	0.0
15	0x3f800000	1.0
16	0x00000000	0.0
17	0x3f800000	1.0
18	0x00000000	0.0
19	0x3f800000	1.0
20	0x00000000	0.0
21	0x3f800000	1.0
22	0x00000000	0.0
23	0x3f800000	1.0
24	0x00000000	0.0
25	0x3f800000	1.0
26	0x00000000	0.0
27	0x3f800000	1.0
28	0x00000000	0.0
29	0x3f800000	1.0
30	0x00000000	0.0
31	0x3f800000	1.0
32	0x3f576aa4	0.84147096
33	0x3f0a5141	0.54030234
34	0x3f087dba	0.53316844
35	0x3f58940d	0.8460091
36	0x3e9f393e	0.3109836
37	0x3f734e6b	0.9504153
38	0x3e35233a	0.17689219
39	0x3f7bf683	0.9842302
40	0x3dcc7576	0.099833414
41	0x3f7eb898	0.9950042
42	0x3d6636ae	0.05620449
43	0x3f7f9868	0.9984193
44	0x3d01815b	0.031617504
45	0x3f7fdf3c	0.99950004
46	0x3c91ab42	0.017781857
47	0x3f7ff5a3	0.99984187
48	0x3c23d657	0.009999833
49	0x3f7ffcb9	0.99995
50	0x3bb8445a	0.0056233825
51	0x3f7ffef7	0.9999842
52	0x3b4f3e1c	0.0031622713
53	0x3f7fffac	0.999995
54	0x3ae91520	0.0017782785
55	0x3f7fffe6	0.99999845
56	0x3a83126d	0.0009999998
57	0x3f7ffff8	0.9999995
58	0x3a136a13	0.0005623411
59	0x3f7ffffd	0.9999998
60	0x39a5cb61	0.00031622782
61	0x3f7fffff	0.99999994
62	0x393a7753	0.00017782794
63	0x3f800000	1.0
64	0x3f68c7b7	0.9092974
65	0xbed51133	-0.41614684
66	0x3f66f20a	0.9021307
67	0x3edce8b2	0.43146282
68	0x3f17541b	0.5911271
69	0x3f4e7bec	0.8065784
70	0x3eb247f6	0.34820527
71	0x3f6ffaa6	0.93741834
72	0x3e4b6ff8	0.19866931
73	0x3f7ae5a5	0.9800666
74	0x3de5d986	0.1122313
75	0x3f7e61f3	0.9936821
76	0x3d8170c8	0.063203394
77	0x3f7f7cf9	0.9980007
78	0x3d11a55c	0.03555809
79	0x3f7fd68e	0.9993676
80	0x3ca3d43e	0.019998666
81	0x3f7ff2e5	0.9998
82	0x3c38439b	0.011246587
83	0x3f7ffbdb	0.99993676
84	0x3bcf3dd8	0.006324511
85	0x3f7ffeb1	0.99998003
86	0x3b691508	0.0035565514
87	0x3f7fff96	0.9999937
88	0x3b031268	0.0019999985
89	0x3f7fffdf	0.99999803
90	0x3a936a12	0.0011246821
91	0x3f7ffff5	0.99999934
92	0x3a25cb60	0.0006324556
93	0x3f7ffffd	0.9999998
94	0x39ba7753	0.00035565588
95	0x3f7fffff	0.99999994
96	0x3e1081c3	0.14112
97	0xbf7d7026	-0.9899925
98	0x3f7e45d7	0.9932532
99	0xbded7fab	-0.11596616
100	0x3f5009c2	0.8126489
101	0x3f152f58	0.58275366
102	0x3f022f6c	0.5085361
103	0x3f5c6d29	0.86104065
104	0x3e974e6c	0.2955202
105	0x3f7490ef	0.9553365
106	0x3e2beed7	0.16790329
107	0x3f7c5d9e	0.9858035
108	0x3dc1ffc0	0.094726086
109	0x3f7ed94f	0.99550337
110	0x3d5a694e	0.053323083
111	0x3f7fa2c3	0.9985773
112	0x3cf5b91f	0.0299955
113	0x3f7fe283	0.99955004
114	0x3c8a31c6	0.016869437
115	0x3f7ff6ad	0.9998577
116	0x3c1b6e0d	0.009486687
117	0x3f7ffd0d	0.999955
118	0x3baecfa8	0.005334813
119	0x3f7fff11	0.99998575
120	0x3b449b92	0.0029999954
121	0x3f7fffb5	0.9999955
122	0x3add1f17	0.0016870227
123	0x3f7fffe8	0.99999857
124	0x3a78b110	0.00094868336
125	0x3f7ffff9	0.9999996
126	0x3a0bd97e	0.0005334838
127	0x3f7ffffe	0.9999999
128	0xbf41bdcf	-0.7568025
129	0xbf275530	-0.6536436
130	0x3f4749ec	0.7784717
131	0xbf20af9e	-0.6276797
132	0x3f741dde	0.95358074
133	0x3e9a2eb1	0.30113748
134	0x3f271fbc	0.652828
135	0x3f41ebed	0.7575062
136	0x3ec761d7	0.38941833
137	0x3f6bcaa7	0.921061
138	0x3e6465c5	0.22304447
139	0x3f798d09	0.9748083
140	0x3e012e88	0.12615407
141	0x3f7df469	0.99201065
142	0x3d918dc8	0.07107121
143	0x3f7f5a46	0.9974712
144	0x3d23cbdb	0.039989334
145	0x3f7fcb94	0.9992001
146	0x3cb840a0	0.022491753
147	0x3f7fef6c	0.99974704
148	0x3c4f3cc9	0.01264877
149	0x3f7ffac2	0.99992
150	0x3be914a7	0.0071130577
151	0x3f7ffe58	0.9999747
152	0x3b831257	0.003999989
153	0x3f7fff7a	0.999992
154	0x3b136a0c	0.0022493629
155	0x3f7fffd6	0.9999975
156	0x3aa5cb5e	0.0012649109
157	0x3f7ffff3	0.9999992
158	0x3a3a7752	0.0007113117
159	0x3f7ffffc	0.99999976
160	0xbf757c10	-0.9589243
161	0x3e913c2c	0.2836622
162	0x3ea5dad8	0.32393527
163	0xbf723240	-0.94607925
164	0x3f7ffc7f	0.99994653
165	0xbc2972e9	-0.010342338
166	0x3f46caab	0.77652997
167	0x3f214cf1	0.6300803
168	0x3ef57743	0.47942552
169	0x3f60a940	0.87758255
170	0x3e8e11ed	0.2774805
171	0x3f75f27c	0.96073127
172	0x3e213c1d	0.15745588
173	0x3f7cce81	0.987526
174	0x3db5db21	0.08879686
175	0x3f7efd1e	0.99604976
176	0x3d4cb6f4	0.049979165
177	0x3f7fae19	0.99875027
178	0x3ce64dfb	0.028113356
179	0x3f7fe619	0.99960476
180	0x3c81857e	0.015810724
181	0x3f7ff7cf	0.999875
182	0x3c11acbb	0.00889128
183	0x3f7ffd69	0.9999605
184	0x3ba3d6dd	0.004999979
185	0x3f7fff2e	0.9999875
186	0x3b384489	0.0028117022
187	0x3f7fffbe	0.99999607
188	0x3acf3e33	0.0015811383
189	0x3f7fffeb	0.99999875
190	0x3a691526	0.0008891396
191	0x3f7ffff9	0.9999996
192	0xbe8f0f8c	-0.2794155
193	0x3f75cdb8	0.96017027
194	0xbe6be576	-0.23036751
195	0xbf791d53	-0.9731037
196	0x3f72784e	0.9471482
197	0xbea43f6d	-0.3207964
198	0x3f603088	0.8757405
199	0x3ef72f35	0.48278204
200	0x3f108c68	0.5646424
201	0x3f534932	0.8253356
202	0x3ea97dfc	0.3310393
203	0x3f7190e2	0.943617
204	0x3e41206e	0.18860027
205	0x3f7b67e3	0.98205394
206	0x3dda19c2	0.10649444
207	0x3f7e8b51	0.9943133
208	0x3d759cd1	0.059964005
209	0x3f7f8a12	0.99820054
210	0x3d0a2cbe	0.033734076
211	0x3f7fdab3	0.99943084
212	0x3c9b6c43	0.018972522
213	0x3f7ff434	0.99982
214	0x3c2ecf05	0.0106694745
215	0x3f7ffc45	0.9999431
216	0x3bc49b58	0.0059999637
217	0x3f7ffed2	0.999982
218	0x3b5d1f03	0.0033740408
219	0x3f7fffa1	0.99999434
220	0x3af8b108	0.0018973658
221	0x3f7fffe2	0.9999982
222	0x3a8bd97c	0.0010669674
223	0x3f7ffff7	0.99999946
224	0x3f283046	0.6569866
225	0x3f40ffbd	0.75390226
226	0xbf36b670	-0.7137213
227	0xbf334f5e	-0.7004298
228	0x3f4ce86e	0.8004216
229	0xbf1974bc	-0.5994375
230	0x3f728444	0.9473307
231	0x3ea3f8ba	0.320257
232	0x3f24eb72	0.6442176
233	0x3f43ccb3	0.7648422
234	0x3ec460de	0.38355154
235	0x3f6c6bc6	0.9235195
236	0x3e60d350	0.2195561
237	0x3f79c0ea	0.9755999
238	0x3dfe46ba	0.12415834
239	0x3f7e04e9	0.9922624
240	0x3d8f3e32	0.06994285
241	0x3f7f5f81	0.997551
242	0x3d21315e	0.03935372
243	0x3f7fcd3b	0.9992253
244	0x3cb552a2	0.022134129
245	0x3f7feff2	0.999755
246	0x3c4bf12a	0.012447635
247	0x3f7ffaec	0.9999225
248	0x3be55fc5	0.006999942
249	0x3f7ffe65	0.9999755
250	0x3b80fcbc	0.0039363783
251	0x3f7fff7e	0.99999225
252	0x3b1111ed	0.0022135929
253	0x3f7fffd7	0.99999756
254	0x3aa32866	0.0012447953
255	0x3f7ffff3	0.9999992

norm1.weight f4 [32]
0	0x3f800000	1.0
1	0x3f800000	1.0
2	0x3f800000	1.0
3	0x3f800000	1.0
4	0x3f800000	1.0
5	0x3f800000	1.0
6	0x3f800000	1.0
7	0x3f800000	1.0
8	0x3f800000	1.0
9	0x3f800000	1.0
10	0x3f800000	1.0
11	0x3f800000	1.0
12	0x3f800000	1.0
13	0x3f800000	1.0
14	0x3f800000	1.0
15	0x3f800000	1.0
16	0x3f800000	1.0
17	0x3f800000	1.0
18	0x3f800000	1.0
19	0x3f800000	1.0
20	0x3f800000	1.0
21	0x3f800000	1.0
22	0x3f800000	1.0
23	0x3f800000	1.0
24	0x3f800000	1.0
25	0x3f800000	1.0
26	0x3f800000	1.0
27	0x3f800000	1.0
28	0x3f800000	1.0
29	0x3f800000	1.0
30	0x3f800000	1.0
31	0x3f800000	1.0

norm1.bias f4 [32]
0	0x00000000	0.0
1	0x00000000	0.0
2	0x00000000	0.0
3	0x00000000	0.0
4	0x00000000	0.0
5	0x00000000	0.0
6	0x00000000	0.0
7	0x00000000	0.0
8	0x00000000	0.0
9	0x00000000	0.0
10	0x00000000	0.0
11	0x00000000	0.0
12	0x00000000	0.0
13	0x00000000	0.0
14	0x00000000	0.0
15	0x00000000	0.0
16	0x00000000	0.0
17	0x00000000	0.0
18	0x00000000	0.0
19	0x00000000	0.0
20	0x00000000	0.0
21	0x00000000	0.0
22	0x00000000	0.0
23	0x00000000	0.0
24	0x00000000	0.0
25	0x00000000	0.0
26	0x00000000	0.0
27	0x00000000	0.0
28	0x00000000	0.0
29	0x00000000	0.0
30	0x00000000	0.0
31	0x00000000	0.0

norm2.weight f4 [32]
0	0x3f800000	1.0
1	0x3f800000	1.0
2	0x3f800000	1.0
3	0x3f800000	1.0
4	0x3f800000	1.0
5	0x3f800000	1.0
6	0x3f800000	1.0
7	0x3f800000	1.0
8	0x3f800000	1.0
9	0x3f800000	1.0
10	0x3f800000	1.0
11	0x3f800000	1.0
12	0x3f800000	1.0
13	0x3f800000	1.0
14	0x3f800000	1.0
15	0x3f800000	1.0
16	0x3f800000	1.0
17	0x3f800000	1.0
18	0x3f800000	1.0
19	0x3f800000	1.0
20	0x3f800000	1.0
21	0x3f800000	1.0
22	0x3f800000	1.0
23	0x3f800000	1.0
24	0x3f800000	1.0
25	0x3f800000	1.0
26	0x3f800000	1.0
27	0x3f800000	1.0
28	0x3f800000	1.0
29	0x3f800000	1.0
30	0x3f800000	1.0
31	0x3f800000	1.0

norm2.bias f4 [32]
0	0x00000000	0.0
1	0x00000000	0.0
2	0x00000000	0.0
3	0x00000000	0.0
4	0x00000000	0.0
5	0x00000000	0.0
6	0x00000000	0.0
7	0x00000000	0.0
8	0x00000000	0.0
9	0x00000000	0.0
10	0x00000000	0.0
11	0x00000000	0.0
12	0x00000000	0.0
13	0x00000000	0.0
14	0x00000000	0.0
15	0x00000000	0.0
16	0x00000000	0.0
17	0x00000000	0.0
18	0x00000000	0.0
19	0x00000000	0.0
20	0x00000000	0.0
21	0x00000000	0.0
22	0x00000000	0.0
23	0x00000000	0.0
24	0x00000000	0.0
25	0x00000000	0.0
26	0x00000000	0.0
27	0x00000000	0.0
28	0x00000000	0.0
29	0x00000000	0.0
30	0x00000000	0.0
31	0x00000000	0.0

encoder.enc_layers.0.attention.query_projection.weight f4 [32, 32]
0	0x3cee2bb0	0.029073566
1	0xbd459ce1	-0.048245315
2	0x3e2c7f2a	0.16845384
3	0xbdb7988e	-0.08964644
4	0x3e093eed	0.1340291
5	0x3b682a44	0.0035425583
6	0xbe380900	-0.17972183
7	0xbdd27b07	-0.10277372
8	0x3df600e7	0.12011891
9	0xbe0d2d1b	-0.13786738
10	0x3defb79a	0.11704941
11	0x3dadaff6	0.084808275
12	0x3dc5ce91	0.0965854
13	0x3dffccee	0.12490259
14	0xbde2ec8d	-0.11080275
15	0xbb3b9ff4	-0.0028629275
16	0x3d7306c6	0.05933263
17	0x3dc219ff	0.094776146
18	0x3dca6684	0.098828346
19	0xbd175284	-0.036943927
20	0x3dce9106	0.10086255
21	0xbd4086bd	-0.047003496
22	0x3d412b40	0.047160387
23	0x3db845e8	0.089977086
24	0x3d162d82	0.036664493
25	0x3d5f565c	0.054525718
26	0xbc9a97e8	-0.018871263
27	0xbdde5449	-0.1085592
28	0x3c188237	0.009308389
29	0xbd7eb69b	-0.062185865
30	0xbd947211	-0.07248319
31	0x3da93409	0.08261878
32	0x3e224098	0.15844953
33	0x3e2ffa1b	0.17185251
34	0x3e104ebc	0.14092535
35	0xbdeaa5fa	-0.11457439
36	0xbd624d62	-0.05524958
37	0xbdbedd93	-0.09319606
38	0xbd2947c5	-0.04132821
39	0x3e1b2349	0.15150179
40	0xbdd20e49	-0.10256631
41	0x3d0c74b6	0.03429099
42	0xbd2613b3	-0.04054613
43	0x3cde24a1	0.027117075
44	0xbdb62eca	-0.08895643
45	0x3c1527cb	0.009103726
46	0xbe0376ca	-0.12838283
47	0xbde45f7f	-0.11151027
48	0xbcc53a94	-0.024075784
49	0xbcd753ce	-0.026285078
50	0x3c5a6e49	0.013331958
51	0xbd89da45	-0.06731085
52	0x3d82a8d9	0.063798614
53	0xbd5da8fc	-0.054116234
54	0xbc439a50	-0.011938646
55	0xbb4daaf1	-0.0031382407
56	0x3dad893c	0.08473441
57	0x3d875614	0.06608215
58	0xbe200a63	-0.15628962
59	0x3dc6bcff	0.09704017
60	0x3db7e70b	0.08979615
61	0xbc49dd70	-0.012320861
62	0xbd073e8a	-0.033018626
63	0xbe41af91	-0.1891463
64	0x3c5614c2	0.0130664725
65	0x3df977c7	0.12181049
66	0xbdb5e886	-0.08882241
67	0xbd5e41d8	-0.054262012
68	0xbd43720f	-0.047716197
69	0xbde0c530	-0.109751105
70	0xbe352659	-0.1769041
71	0x3dd932ef	0.10605418
72	0x3dee53a5	0.11637048
73	0xbe3c0b2f	-0.18363641
74	0x3d9c97a7	0.07646113
75	0xbdd8986f	-0.105759494
76	0xbdaa7ba1	-0.083243616
77	0xbd17038f	-0.036868628
78	0xbe051843	-0.12997536
79	0x3e88a9aa	0.26691943
80	0xbd1893d5	-0.03725036
81	0x3d53ebc7	0.051738527
82	0x3cde28e3	0.027119106
83	0x3dbc9c24	0.09209469
84	0x3db12fe4	0.086517125
85	0xbd8c195a	-0.06840773
86	0xbe00dd9f	-0.12584542
87	0x3dcc37c1	0.09971572
88	0x3b96ec58	0.004605811
89	0x3db1276d	0.08650098
90	0x3e09c70b	0.13454835
91	0x3d431b8a	0.047633685
92	0x3d950273	0.07275858
93	0x3df92577	0.12165349
94	0xbbd8cce7	-0.006616223
95	0x3d719dc0	0.058988333
96	0x3dd8a2d2	0.105779305
97	0x3bb750a2	0.005594329
98	0x3d9a32cc	0.0752922
99	0x3dcc5c5c	0.09978554
100	0xbdb261e3	-0.08710077
101	0x3d87813c	0.066164464
102	0x3e32cb02	0.17460254
103	0xbd8706ee	-0.065931186
104	0x3ddc954e	0.10770665
105	0xbdbdbe7f	-0.0926485
106	0x3db0de08	0.08636099
107	0xbdc01b4a	-0.09380205
108	0x3d5826db	0.05277143
109	0x3d90aeb0	0.07064569
110	0x3c0033d2	0.007824855
111	0x3d960174	0.07324496
112	0x3df5fe80	0.12011433
113	0x3db78c2f	0.08962285
114	0xbc58f9ce	-0.013243152
115	0xbcd7766c	-0.026301585
116	0xbd730620	-0.059332013
117	0x3d14433a	0.036196925
118	0x3ba22f44	0.004949482
119	0x3e0d6153	0.13806657
120	0xbd6968f9	-0.056984875
121	0x3b64216a	0.0034809955
122	0x3e0ea46d	0.13929911
123	0xbbe04df3	-0.00684523
124	0xbdbd2c6d	-0.09236989
125	0xbe255018	-0.16143835
126	0xbcee50cc	-0.029091261
127	0xbd995eb9	-0.0748877
128	0xbe37ab58	-0.17936456
129	0x3d921ed2	0.07134785
130	0xbd9edb39	-0.07756657
131	0x3d4a0282	0.049318798
132	0xbe06bbd4	-0.13157588
133	0xbdafd957	-0.08586376
134	0x3cd290b8	0.025703773
135	0x3d3df5e6	0.046377085
136	0x3e102bbc	0.14079183
137	0x3cf4baa9	0.029874163
138	0xbc66efdb	-0.014095272
139	0xbd493b65	-0.04912891
140	0xbe3d8ed6	-0.18511519
141	0xbc890841	-0.016727569
142	0x3e08b2f7	0.1334952
143	0x3bacce93	0.005273649
144	0xbe2915d4	-0.16512233
145	0x3e0730c5	0.13202198
146	0x3dcc719a	0.09982605
147	0x3dc30bd8	0.095237434
148	0xbdb8aa40	-0.090168476
149	0xbda40252	-0.08008255
150	0x3dc9cc84	0.098534614
151	0x3d51b7ea	0.051200785
152	0xbdde4576	-0.10853092
153	0x3dceeba7	0.10103541
154	0x3e155148	0.14581788
155	0x3d26dbbd	0.040736903
156	0xbc79eb12	-0.015253799
157	0x3dea666d	0.114453174
158	0xbb5ab2f4	-0.0033370825
159	0x3e01f29a	0.12690201
160	0x3daa63ee	0.08319841
161	0xbc3616ee	-0.011113865
162	0x3d96ae4f	0.073574655
163	0xbdbc668b	-0.09199246
164	0xbe14c8ac	-0.14529675
165	0x3e6851d8	0.22687471
166	0x3e46fe60	0.19432974
167	0x3dd13bef	0.102165096
168	0xbe257111	-0.16156413
169	0x3dab7af8	0.08373064
170	0x3d93946e	0.07206045
171	0xbd051184	-0.032487407
172	0xbd0341ec	-0.03204529
173	0x3cc859c2	0.024456862
174	0x3d101657	0.035177555
175	0xbe481e7c	-0.19542879
176	0xbd1ec859	-0.038765285
177	0xbdacc9af	-0.084369056
178	0x3e21201d	0.15734906
179	0xbd971875	-0.07377712
180	0x3d87f4c0	0.06638479
181	0xbdcc7593	-0.09983363
182	0x3e0fc3c7	0.14039527
183	0xbe3b1d99	-0.1827301
184	0x3d6e6f56	0.058211647
185	0xbc533fc5	-0.012893622
186	0xbd928ce9	-0.07155783
187	0xbc55afbe	-0.0130423885
188	0xbc8e30ae	-0.017357197
189	0x3d2cf19c	0.042222604
190	0x3d922894	0.07136646
191	0xbdfbfc0d	-0.12303934
192	0x3e23e593	0.16005544
193	0xba808797	-0.0009806034
194	0x3cd6894c	0.026188515
195	0xbe0cb48e	-0.13740751
196	0x3d3c7e3a	0.046018817
197	0xbd0da4c7	-0.034580972
198	0x3cd09294	0.025460519
199	0xbdd31a72	-0.103077784
200	0x3d020200	0.03174019
201	0xbb8e1c7c	-0.0043368917
202	0x3e0f42ca	0.13990322
203	0xbd99ae6c	-0.075039715
204	0x3d0dbb10	0.034602225
205	0x3c55c0c3	0.013046446
206	0x3dcb9bf4	0.09941855
207	0xbc736fb1	-0.014858172
208	0xbad8a54a	-0.0016528752
209	0x3e1a834d	0.1508915
210	0xbd7d3037	-0.06181356
211	0xbdcfaed3	-0.10140767
212	0x3db869d7	0.09004562
213	0x3c2c0473	0.010499108
214	0xbc67ebde	-0.014155356
215	0xbe2de47d	-0.16981693
216	0xbd336e27	-0.04380622
217	0x3c2934f8	0.01032757
218	0xbdcf4296	-0.10120122
219	0x3e286735	0.1644562
220	0xbd8967ee	-0.06709276
221	0x3d0531eb	0.03251831
222	0x3ce7f4eb	0.028315028
223	0x3d72ecc5	0.059307832
224	0xbd514663	-0.051092517
225	0x3c3bdbe9	0.011466005
226	0x3dbd885f	0.09254526
227	0x3e7b35a0	0.24532175
228	0x3db2bca0	0.087273836
229	0x3cf1309c	0.029442124
230	0x3d1aeb21	0.037821893
231	0xbddaf8fc	-0.10692021
232	0xbd5f128c	-0.054461047
233	0x3e09ee06	0.13469705
234	0xbe11e73c	-0.14248365
235	0xbdad5115	-0.08462731
236	0x3e1c7118	0.15277517
237	0xbd9dd28d	-0.07706175
238	0xbd7bc0ba	-0.061463095
239	0x3d32066f	0.043463167
240	0xbd6f0d97	-0.05836257
241	0xbe4ba2ca	-0.19886318
242	0xbd540a2a	-0.051767506
243	0xbde9110f	-0.11380207
244	0xbdbb8322	-0.09155871
245	0xbcf3f373	-0.029779172
246	0xbd85a823	-0.0652621
247	0xbda9a550	-0.08283484
248	0xbd2e91db	-0.042619567
249	0xbcdec204	-0.027192123
250	0xbc09070b	-0.008363496
251	0xbda297ea	-0.079391316
252	0xbb10a1e0	-0.0022069141
253	0x3e1aac3b	0.15104763
254	0x3e2cea78	0.16886318
255	0x3db219e2	0.08696343

encoder.enc_layers.0.attention.query_projection.bias f4 [32]
0	0x3e3c0081	0.18359567
1	0x3ca82b81	0.020528557
2	0x3e7cbbb6	0.24680981
3	0x3d9fb140	0.0779748
4	0x3e6b158e	0.22957441
5	0xbe5950e8	-0.2122227
6	0xbbc3f0b5	-0.0059796222
7	0xbdbeca77	-0.09315961
8	0xbe21b89c	-0.15793079
9	0xbde229fc	-0.11043164
10	0xbdcf87c1	-0.10133315
11	0xbb4d69db	-0.0031343612
12	0xbe396451	-0.18104674
13	0xbdcfb935	-0.10142747
14	0x3e80af37	0.25133678
15	0x3eccd7ef	0.40008494
16	0x3db3b576	0.08774845
17	0x3e63e760	0.22256231
18	0xbde0523b	-0.10953184
19	0xbd9f1c29	-0.07769043
20	0xbda508bf	-0.08058309
21	0x3c7b51be	0.015339313
22	0xbd2e8bc8	-0.042613775
23	0x3dc50c17	0.096214466
24	0xbd873026	-0.066009805
25	0xbe0b4937	-0.13602148
26	0x3c8dde78	0.017317995
27	0x3d92cb1e	0.07167648
28	0x3e07f39f	0.13276528
29	0xbe14782f	-0.14498971
30	0xbe4f82a2	-0.20264676
31	0xbdcaff90	-0.09912026

encoder.enc_layers.0.attention.key_projection.weight f4 [32, 32]
0	0xbc376a31	-0.011194752
1	0xbd4b6dbc	-0.049665198
2	0xbe0ef0b8	-0.13959014
3	0xbe80c364	-0.2514907
4	0x3db2958e	0.087199315
5	0x3d61ef99	0.05516014
6	0x3cc028fe	0.023457047
7	0x3d812f03	0.06307795
8	0xbbbdfaa2	-0.0057977
9	0x3d842663	0.06452634
10	0x3c177089	0.009243139
11	0xbd86fd06	-0.06591229
12	0xbd589ca7	-0.05288377
13	0x3dbf1f23	0.09332111
14	0xbe0dce5d	-0.13848253
15	0xbcbc48a4	-0.022983856
16	0x3e3a8a2b	0.1821677
17	0x3dd8ab61	0.10579563
18	0x3e3be873	0.18350391
19	0x3d9a982a	0.07548554
20	0x3d482ad9	0.048868988
21	0x3e0a566e	0.13509533
22	0xbd6b4f5c	-0.05744873
23	0x3be37639	0.0069415835
24	0x3dbd1d28	0.09234077
25	0x3dea9433	0.11454048
26	0xbe1813a2	-0.1485124
27	0x3e3b7dbd	0.18309684
28	0xbd875e4b	-0.06609782
29	0x3dc6be93	0.09704318
30	0x3d6d179b	0.05788384
31	0xbdf351a6	-0.118808076
32	0xbdb6ee8a	-0.089322165
33	0x3daf0fed	0.085479595
34	0xbda91a78	-0.08257002
35	0x3d961fa5	0.073302545
36	0x3ba21442	0.0049462626
37	0xbe24dd95	-0.16100152
38	0x3d8f410c	0.069948286
39	0x3e1b3cbc	0.15159887
40	0x3db4e79e	0.0883324
41	0xbe03974d	-0.12850685
42	0xbe1f3c63	-0.1555038
43	0x3d6738cd	0.056450654
44	0xbda670b0	-0.08126962
45	0x3d2a9291	0.041643683
46	0x3da0b419	0.07846851
47	0xbd52e35a	-0.05148635
48	0xbe2a785e	-0.16647479
49	0xbcab41df	-0.020905433
50	0xbe01e67a	-0.12685576
51	0xbdf8c991	-0.12147821
52	0x3d77c9a9	0.060495052
53	0xbb07db34	-0.002073002
54	0x3ba1ca57	0.004937451
55	0xbde5dbc1	-0.11223555
56	0x3d9b5425	0.07584409
57	0x3de9f641	0.11423922
58	0x3e1f0d87	0.15532504
59	0xbc8b047f	-0.016969917
60	0x3dd9b49f	0.10630154
61	0xbe347789	-0.17623724
62	0x3d9b57a2	0.07585074
63	0xbcd776c1	-0.026301743
64	0xbd2be0dd	-0.041962493
65	0x3d8812ba	0.06644197
66	0xbdd87ff1	-0.10571278
67	0xbdb97fdf	-0.090575926
68	0xbdb1a1ef	-0.086734645
69	0xbe8850bd	-0.26624098
70	0xbb3883ab	-0.0028154652
71	0x3dc105d1	0.094249375
72	0xbd874061	-0.06604076
73	0xbcfa4b93	-0.030553615
74	0xbdb8945f	-0.090126745
75	0x3d2019df	0.039087173
76	0x3e063209	0.13105024
77	0xbd416fd4	-0.04722579
78	0xbe2726c2	-0.16323379
79	0x3d774cea	0.060376085
80	0x3d3b4e84	0.045729175
81	0x3e12c3d5	0.14332516
82	0xbd8dd960	-0.069262266
83	0xbd52fef0	-0.05151266
84	0x3c79f5c8	0.015256353
85	0x3e5ee552	0.21767166
86	0xbdc7d7a3	-0.09757926
87	0xbd39accf	-0.04533082
88	0x3dbde079	0.092713304
89	0x3c3199ef	0.010839923
90	0x3c840e43	0.016120082
91	0x3bff67b2	0.007794344
92	0x3e44628d	0.19178219
93	0x3dd1acca	0.10238035
94	0x3c0fff08	0.0087888315
95	0xbe37122f	-0.1787803
96	0xbd87fa4a	-0.06639536
97	0x3d15b286	0.036547206
98	0x3d77a244	0.060457483
99	0xbdc3630f	-0.09540378
100	0x3d1563c4	0.036472097
101	0xbd89e73e	-0.06733559
102	0xbd907323	-0.070532106
103	0xbe23bade	-0.15989253
104	0x3de020be	0.10943745
105	0x3d9f23be	0.07770489
106	0x3da79956	0.081835434
107	0x3dc61b32	0.09673156
108	0xbdbdae98	-0.09261817
109	0xbde8c95f	-0.113665335
110	0xbd9e3a73	-0.07725992
111	0xbd14e1ba	-0.036348082
112	0xbd715c04	-0.058925644
113	0x3e08588a	0.13315025
114	0xbd14889a	-0.036263086
115	0x3e4d8235	0.20069201
116	0xbe42f37c	-0.19038194
117	0xbd4f8c37	-0.05067083
118	0xbd84c489	-0.064827986
119	0x3db77d77	0.089594774
120	0xbdb0a860	-0.08625865
121	0xbd62688c	-0.055275485
122	0x3d157366	0.036487006
123	0x3d74c4b4	0.059757903
124	0x3d428819	0.047493074
125	0x3d75fe1e	0.0600568
126	0xbccdac3e	-0.025106546
127	0xbda54cc6	-0.08071284
128	0x3e2fa2a8	0.17151892
129	0xbc51b49e	-0.01279941
130	0x3d3ec5a6	0.04657521
131	0xbe2cfcf8	-0.16893375
132	0x3e1ef768	0.15524065
133	0xbe4f1c4c	-0.20225638
134	0xbd9d8709	-0.076917715
135	0x3e030987	0.12796603
136	0x3e075a3e	0.13218018
137	0xbe8009b6	-0.2500741
138	0x3db8c9c8	0.09022862
139	0xbcd41081	-0.025886776
140	0x3e16efbb	0.14739887
141	0x3ddd397e	0.108019814
142	0xbe0533b0	-0.13007998
143	0xbc95471e	-0.018222388
144	0x3e38c95f	0.18045567
145	0x3e106613	0.14101438
146	0xbde9695f	-0.11397051
147	0x39c98d42	0.00038442953
148	0xbcc5531f	-0.024087487
149	0xbdf98ccc	-0.12185058
150	0x3c75a66e	0.014993293
151	0x3e02aecd	0.12761994
152	0x3bbcdcb0	0.0057636127
153	0xbdc5b291	-0.096531995
154	0xbd10c1f4	-0.035341218
155	0xbccb3a2b	-0.02480801
156	0xbe32fa22	-0.1747823
157	0x3d45e0c0	0.04831004
158	0xbdd08f45	-0.101835765
159	0xbc86e4cd	-0.016466523
160	0xbd7aad04	-0.061200157
161	0x3cdd9766	0.027049731
162	0x3e252b5e	0.16129825
163	0x3def1075	0.11673061
164	0x3dd4651f	0.1037085
165	0xbcf6c16d	-0.03012153
166	0xbc62006a	-0.013794044
167	0xbd432f93	-0.047652792
168	0xbc8d552e	-0.01725253
169	0xbcf70970	-0.030155867
170	0x3d04ed42	0.03245283
171	0x3dbf8196	0.093508884
172	0xbe029ce6	-0.12755165
173	0x3dc8db24	0.09807423
174	0x3e312a5a	0.17301312
175	0x3d6ce214	0.057832792
176	0x3d1cc27d	0.038271416
177	0x3db80a5a	0.089863494
178	0xbd636b56	-0.055522285
179	0xbe241619	-0.16024055
180	0x3e1511d3	0.1455758
181	0xbdaa13a7	-0.0830453
182	0xbc9a4046	-0.018829476
183	0x3d8f4210	0.06995022
184	0xbdd76345	-0.10516981
185	0x3de6d655	0.11271349
186	0x3c5b6588	0.013390906
187	0x3dd2bb8d	0.10289679
188	0xbe355770	-0.17709136
189	0x38c6e4c1	9.4839845e-05
190	0xbd33d2e6	-0.0439023
191	0x3dee42f1	0.11633862
192	0xbdbb4581	-0.09144116
193	0xbe060ec5	-0.13091572
194	0xbe489c5b	-0.19590895
195	0x3b8c81fa	0.0042879554
196	0xbdc9c1e7	-0.09851437
197	0xbde79fd1	-0.113097794
198	0xbd97c31f	-0.07410263
199	0xbdadfce8	-0.08495504
200	0xbd7f04ae	-0.062260322
201	0x3d928bbb	0.07155558
202	0xbe1fd3ec	-0.15608186
203	0x3d5ed7bd	0.054404963
204	0x3d9c3dc8	0.07628971
205	0xbcc56b3c	-0.024098985
206	0x3df5ea66	0.120075986
207	0xbcc48026	-0.023986887
208	0xbd9dfb8b	-0.07713994
209	0xbddd3cc2	-0.10802604
210	0x3d34bb93	0.044124197
211	0xbdcb6142	-0.0993066
212	0x3ddcf618	0.10789126
213	0xbd62596c	-0.05526106
214	0x3da59c6b	0.08086475
215	0xbe335d93	-0.17516164
216	0xbc058e0b	-0.008151541
217	0x3c2380da	0.009979451
218	0xbe304358	-0.1721319
219	0xbdf6c556	-0.120493576
220	0x3e464e25	0.19365747
221	0x3e217430	0.15766978
222	0xbcf65474	-0.030069567
223	0x3d7dd844	0.061973825
224	0x3cea5bca	0.028608222
225	0x3de255a8	0.11051494
226	0x3de75f7f	0.11297511
227	0x3e073e27	0.13207303
228	0x3d18409b	0.037170988
229	0x3e8b3470	0.27188444
230	0x3d87aa3f	0.06624269
231	0x3d88f782	0.06687833
232	0x3dab4e96	0.083645985
233	0x3d93ca4e	0.07216321
234	0x3e350be4	0.17680317
235	0x3e0f75f1	0.14009835
236	0xbd0c850c	-0.03430657
237	0xbc997b0c	-0.018735431
238	0x3d83df6a	0.06439097
239	0x3cadc6b9	0.021212922
240	0xba33a05c	-0.00068522035
241	0x3d6d6ace	0.057963185
242	0xbde45fd4	-0.1115109
243	0x3ddf1ff0	0.108947635
244	0xbe10fa94	-0.14158088
245	0xbdaa66a1	-0.08320356
246	0xbdedf0f4	-0.11618224
247	0xbe36b3fb	-0.17842095
248	0x3d3efdc3	0.046628725
249	0xbda9ef12	-0.08297552
250	0xbe2c3a4b	-0.16819112
251	0x3e2c02b4	0.16797906
252	0xbd8a637c	-0.067572564
253	0xbd85e26d	-0.06537328
254	0x3db2904f	0.08718931
255	0x3de55806	0.1119843

encoder.enc_layers.0.attention.key_projection.bias f4 [32]
0	0xbdcf1377	-0.101111345
1	0x3dbcd031	0.09219397
2	0xbced3ace	-0.028958704
3	0xbe06a420	-0.13148546
4	0x3e19bd15	0.15013535
5	0xbced425a	-0.028962303
6	0xbe493ed3	-0.19652872
7	0xbdcf7374	-0.10129443
8	0xbe966f50	-0.293818
9	0xbd9ffa3e	-0.07811402
10	0x3d8fbe9d	0.070187785
11	0x3e179a64	0.14804989
12	0x3d08dd27	0.033414032
13	0x3d603d4d	0.05474596
14	0x3cdce148	0.026962891
15	0x3d78d132	0.06074638
16	0xbc734f2f	-0.014850422
17	0xbe02a479	-0.12758054
18	0xbe2c65de	-0.16835734
19	0xbd54a3b2	-0.051913925
20	0x3bf37890	0.0074301437
21	0xbde74047	-0.11291557
22	0x3dc24a65	0.09486846
23	0xbdace723	-0.08442523
24	0x3e0bb4f7	0.13643251
25	0xbd179965	-0.037011523
26	0x3cf6e8c9	0.030140297
27	0x3e0dc40f	0.13844322
28	0x3e2843df	0.16432141
29	0xbe3cb16e	-0.18427059
30	0x3b656e93	0.0035008534
31	0xbdc40021	-0.09570337

encoder.enc_layers.0.attention.value_projection.weight f4 [32, 32]
0	0x3e1a38b0	0.15060687
1	0x3e02d01b	0.12774698
2	0x3d04bde0	0.03240764
3	0x3d3e5938	0.046471804
4	0x3dbcd52d	0.092203476
5	0x3d35f405	0.04442217
6	0xbe00e9b3	-0.12589149
7	0xbda5f34a	-0.08103044
8	0x3e284ac4	0.16434771
9	0xbe5bfe37	-0.21483694
10	0xbda6437c	-0.081183404
11	0x3d8e010e	0.06933795
12	0xbd02c37f	-0.03192472
13	0x3ca32ac9	0.019917862
14	0x3dc65cd9	0.09685678
15	0x3dd1f347	0.102514796
16	0xbd08a192	-0.03335721
17	0x3c867d69	0.016417222
18	0x3d5e8aea	0.054331698
19	0x3e2845b1	0.16432835
20	0x3d9ff460	0.07810283
21	0x3e134b92	0.14384297
22	0xbdefb9e2	-0.11705376
23	0x3e02766c	0.12740487
24	0x3d49285c	0.049110755
25	0x3e64f5d3	0.223594
26	0x3e1e65d3	0.1546853
27	0x3e0aab6e	0.13541958
28	0xbe397f20	-0.181149
29	0x3e17deaa	0.14831033
30	0x3c129964	0.008947704
31	0x3dc77da9	0.09740765
32	0xbc379f26	-0.011207378
33	0xbd5f09bf	-0.054452654
34	0xbddc2305	-0.10748867
35	0xbd0c1f04	-0.034209266
36	0xbdb9574c	-0.09049854
37	0xbd07f7d8	-0.033195347
38	0x3e4afcee	0.19823048
39	0xbd7359bb	-0.059411746
40	0xbdb66aae	-0.08907066
41	0x3e2eadca	0.17058483
42	0xbdec98b7	-0.115525655
43	0x3dd074bd	0.10178516
44	0xbdb3836b	-0.087653
45	0x3d8933c8	0.066993296
46	0xbbbd1a0b	-0.005770927
47	0xbe8301cb	-0.25587305
48	0xbde39189	-0.11111743
49	0xbd97fc7a	-0.07421203
50	0xbbc4c204	-0.006004574
51	0xbe8094f9	-0.25113657
52	0xbe0bf41a	-0.13667336
53	0xbe21b259	-0.1579069
54	0xbdec870a	-0.11549194
55	0xbdaffb50	-0.08592856
56	0x3e024122	0.12720159
57	0xbe1baf83	-0.15203671
58	0x3c50203a	0.012702996
59	0xbcc96ffc	-0.024589531
60	0x3d617bb5	0.055049617
61	0x3da8e2c1	0.08246375
62	0x3c56c7bb	0.013109143
63	0xbe32d47f	-0.17463873
64	0x3b8db4e4	0.0043245424
65	0xbdf5ec98	-0.12008017
66	0xbdca7bf3	-0.09886923
67	0xbe2dac72	-0.16960314
68	0xbe08db43	-0.13364892
69	0xbdf6c317	-0.12048929
70	0x3d8a419f	0.067507975
71	0x3dd7e32b	0.10541376
72	0xbe053c5f	-0.13011311
73	0xbd794722	-0.060858853
74	0x3c651c64	0.01398382
75	0xbdbe34b1	-0.09287394
76	0xbcaaf994	-0.020870961
77	0x3d198acd	0.037485886
78	0xbe4bcd6c	-0.19902581
79	0xbc3ece34	-0.011645842
80	0xbbe4ee5d	-0.006986423
81	0xbe0909d0	-0.1338265
82	0xbda5568a	-0.08073147
83	0x3ba8b827	0.005148906
84	0xbded7ef9	-0.11596484
85	0x3d8fcfac	0.07022032
86	0xbe04f3aa	-0.12983575
87	0xbda0100f	-0.07815563
88	0x3d90dfae	0.070739135
89	0xbda9a9f1	-0.08284367
90	0x3ceeaf6c	0.029136382
91	0xbdfd6abc	-0.123738736
92	0x3dfbdeb4	0.122983366
93	0xbcf2e8b0	-0.02965197
94	0x3dac4374	0.08411303
95	0xbe166e4a	-0.1469051
96	0x3ce1c6cd	0.027560616
97	0x3d9e023b	0.07715269
98	0x3c125b25	0.008932863
99	0xbd2daf9d	-0.042403806
100	0xbbf44243	-0.007454188
101	0xbe7bc196	-0.24585566
102	0xbe6140ab	-0.21997325
103	0xbd9247aa	-0.07142575
104	0x3e25ca60	0.16190481
105	0xbcab1a10	-0.020886451
106	0xbddaec6b	-0.106896244
107	0xbe011dd1	-0.1260903
108	0x3de37664	0.111065656
109	0x3c33fc7f	0.010985493
110	0xbe364da4	-0.17803055
111	0x3e16bf95	0.1472152
112	0xbe12ab81	-0.14323236
113	0x3d24ee2e	0.04026621
114	0xbdbcdbb5	-0.09221593
115	0x3e4fdb84	0.20298582
116	0xbc38c46a	-0.0112772975
117	0x3e531dc1	0.20616819
118	0xbd54748a	-0.051868953
119	0x3e628ecb	0.22124784
120	0x3d7ac2d2	0.06122095
121	0x3e15c2aa	0.1462504
122	0x3e48ba35	0.19602282
123	0x3e32c929	0.17459549
124	0xbdd61d76	-0.10454838
125	0x3e0a562d	0.13509436
126	0xbdaaad81	-0.083338745
127	0xbd86d12a	-0.06582864
128	0xbe0ab4d8	-0.13545549
129	0x3c029aec	0.007971507
130	0x3e02cec9	0.12774195
131	0xbd52a2a4	-0.051424637
132	0x3d864f89	0.06558139
133	0x3d9d6656	0.07685535
134	0x3db905a4	0.09034279
135	0x3d777992	0.060418673
136	0xbe361ddf	-0.17784832
137	0x3d163930	0.036675632
138	0xbc4ba73a	-0.012430007
139	0x3c203a58	0.009779535
140	0xbdea300c	-0.114349455
141	0x3dfd6c2d	0.123741485
142	0xbbd1390e	-0.0063849753
143	0xbc15f256	-0.009152016
144	0x3db190d4	0.08670202
145	0xbd501e92	-0.050810404
146	0xbdf205bd	-0.11817501
147	0xbdbc6f42	-0.09200908
148	0xbe07aecd	-0.13250275
149	0xbe2b69b0	-0.16739535
150	0x3e24f7c2	0.16110137
151	0x3dfb1603	0.12260058
152	0x3d00aba0	0.031413674
153	0xbe3a3efe	-0.18188092
154	0x3d584f66	0.052810095
155	0xbe42adcf	-0.19011615
156	0x3da79473	0.08182611
157	0xbe416f7a	-0.18890181
158	0x3e21bc8a	0.15794578
159	0xbcad93d0	-0.021188647
160	0xbcb415a1	-0.02198297
161	0xbe15518d	-0.1458189
162	0xbe1991bb	-0.14996998
163	0xbe108799	-0.14114226
164	0x3d86bcb2	0.065789595
165	0xbe87e938	-0.2654512
166	0xbdbbe589	-0.0917464
167	0x3d81f9a5	0.06346444
168	0xbdb571b7	-0.0885958
169	0x3d3c0405	0.04590227
170	0xbe0a0d10	-0.13481545
171	0xbcd22f5a	-0.025657345
172	0x3cf179c3	0.029477006
173	0xbe5e1c39	-0.21690454
174	0xbd862e78	-0.06551832
175	0x3da041cd	0.078250505
176	0xbe03b177	-0.12860666
177	0x3d2d25f2	0.042272516
178	0xbe176b56	-0.14787039
179	0x3e1f2726	0.15542278
180	0x3e20f44a	0.15718189
181	0x3ded5222	0.11587931
182	0xbdeeff47	-0.11669784
183	0x3e27f54f	0.16402172
184	0xbe2090f5	-0.15680297
185	0x3c7bd138	0.015369706
186	0x3e22bc20	0.15892076
187	0xbd41e6d8	-0.04733929
188	0x3e0d315e	0.13788363
189	0x3d02c5b3	0.031926822
190	0x3dfd5fff	0.123718254
191	0xbdfb0548	-0.12256867
192	0xbddb926e	-0.107212886
193	0xbe24e5c3	-0.16103272
194	0x3c7498dc	0.014929023
195	0xbe08ce09	-0.13359846
196	0xbd7565c2	-0.059911497
197	0x3a33d3e9	0.0006859885
198	0xbd18a81b	-0.037269693
199	0x3d29ae36	0.041425906
200	0x3dabbf7d	0.08386133
201	0x3a03fdce	0.0005035073
202	0x3e1ae1ec	0.15125245
203	0x3dbaae65	0.09115294
204	0xbb9b89f2	-0.004746669
205	0x3db086c1	0.08619452
206	0x3cef9c3b	0.029249301
207	0xbdbff477	-0.093728
208	0x3db8c89a	0.09022637
209	0x3ca4b0d2	0.020103846
210	0xbd5a0a05	-0.05323221
211	0xbdf84b0f	-0.12123691
212	0xbcdc2371	-0.026872369
213	0x3ab1db6c	0.0013569421
214	0x3d371d53	0.0447057
215	0x3d336d17	0.043805208
216	0x3ddff237	0.10934871
217	0x3da716b8	0.0815863
218	0x3de8915b	0.11355849
219	0x3d9c3ab8	0.07628387
220	0xbe22ae11	-0.15886714
221	0xbcdee6a3	-0.027209586
222	0x3d91ab2f	0.07112729
223	0xbd342742	-0.04398275
224	0x3e48815c	0.19580597
225	0x3b9d1674	0.0047939364
226	0x3da6161e	0.08109687
227	0xbddbded3	-0.1073586
228	0x3d6002c6	0.054690145
229	0xbe8458b7	-0.25848934
230	0xbd1810d3	-0.03712542
231	0xbcd0bcdb	-0.025480678
232	0x3dc2123e	0.09476136
233	0xbe231d3c	-0.15929121
234	0x3dda6cbf	0.10665273
235	0xbde0d87b	-0.109787904
236	0xbd915e47	-0.0709806
237	0xbe411aa7	-0.18857823
238	0xbe624d3b	-0.22099774
239	0x3d4417d3	0.047874283
240	0xbc63edd6	-0.013911685
241	0x3e089ace	0.13340303
242	0x3d3e8876	0.046516858
243	0x3da56066	0.08075027
244	0x3d6aec11	0.057354037
245	0xbca438a5	-0.020046541
246	0xbc5105f8	-0.012757771
247	0x3e88791d	0.26654902
248	0xbdbd005f	-0.092285864
249	0x3ccac523	0.024752205
250	0x3e648acd	0.22318573
251	0x3d555537	0.05208322
252	0xbd9c3b80	-0.07628536
253	0xbdad775b	-0.08470031
254	0x3e0d2ab9	0.13785829
255	0xbc09ab71	-0.008402691

encoder.enc_layers.0.attention.value_projection.bias f4 [32]
0	0x3e1c4e61	0.15264274
1	0xbd026b30	-0.031840503
2	0x3c79b17f	0.015240072
3	0x3e39be4b	0.18138997
4	0xbe2ae198	-0.1668762
5	0xbcad1d61	-0.021132173
6	0xbe252485	-0.16127212
7	0x3e1536c2	0.1457167
8	0xbe331331	-0.1748779
9	0xbe3aeb5e	-0.18253848
10	0x3c3f114c	0.011661839
11	0x3d7a7255	0.06114419
12	0xbe248cd7	-0.16069351
13	0x3c8dbfb0	0.017303318
14	0xbae8f0e8	-0.0017771991
15	0xbe17300d	-0.14764424
16	0x3e436ac1	0.19083692
17	0x3df6d6c1	0.1205268
18	0x3a90623d	0.0011015605
19	0xbb7f0a8b	-0.0038916196
20	0xbda124cf	-0.07868349
21	0xbdab8614	-0.08375183
22	0x3e4258c3	0.18979172
23	0x3de8d851	0.11369384
24	0xbe36d062	-0.17852929
25	0x3d4fdd4d	0.05074816
26	0x3d62839a	0.055301286
27	0xbd459628	-0.048238903
28	0xbe21fec0	-0.15819836
29	0xbc1b0457	-0.009461484
30	0xbd9b896e	-0.07594572
31	0x3e44ffbe	0.19238183

encoder.enc_layers.0.attention.out_projection.weight f4 [32, 32]
0	0xbe86f4e7	-0.2635872
1	0x3e2957f3	0.16537456
2	0x3e2e7b02	0.17039111
3	0xbe069c1a	-0.13145486
4	0x3e088dc3	0.13335328
5	0x3dce067e	0.10059832
6	0xbd45d884	-0.04830219
7	0xbe3502b7	-0.17676817
8	0x3e5905a8	0.21193564
9	0xbd379815	-0.04482277
10	0xbe4e2076	-0.2012957
11	0xbd964cd4	-0.073388726
12	0x3d5b85db	0.05359445
13	0xbe810884	-0.2520181
14	0x3b4af9a5	0.0030971554
15	0x3cc36186	0.023850214
16	0xbe401468	-0.18757784
17	0x3ded15e2	0.115764394
18	0xbe379ca5	-0.17930849
19	0x3bee2570	0.0072676465
20	0x3da1d6c0	0.079022884
21	0x3c8c9faa	0.017165978
22	0x3c307262	0.0107694585
23	0xbda091e4	-0.078403264
24	0x3d91870d	0.07105837
25	0x3e0d6bc4	0.1381064
26	0x3df42766	0.11921577
27	0x3dfbbf85	0.12292389
28	0xbd0da557	-0.03458151
29	0x3e1a91c9	0.15094675
30	0x3dc09272	0.09402932
31	0xbd21db99	-0.039516065
32	0xbc8e2d13	-0.017355477
33	0x3c81fa03	0.015866285
34	0xbd9d53ea	-0.07682021
35	0xbdc1dddd	-0.09466145
36	0x3d2e3a31	0.042535964
37	0xbe063987	-0.13107882
38	0x3d7bf379	0.06151149
39	0x3d4c182b	0.049827736
40	0x3dc43d96	0.09582059
41	0x3e1976f3	0.14986782
42	0xbe31cdb0	-0.1736362
43	0xbdcf59be	-0.10124539
44	0xbdb61fae	-0.08892761
45	0xbe3f67a4	-0.1869188
46	0xbbbe646e	-0.005810312
47	0xbc98d12f	-0.018654434
48	0x3cd9937d	0.026559586
49	0x3debf491	0.11521257
50	0x3c6f47b9	0.014604502
51	0x3e36915e	0.1782889
52	0xbd835472	-0.06412591
53	0x3df4d968	0.119555295
54	0xbd35d1fc	-0.04438971
55	0xbe8417d1	-0.2579942
56	0xbc38957a	-0.011266107
57	0x3d093dd2	0.033506222
58	0x3dbaf5a6	0.09128885
59	0xbe291bfc	-0.16514581
60	0x3c667acd	0.014067364
61	0x3cc485d0	0.023989588
62	0x3db4e5bb	0.0883288
63	0x3e2003fd	0.15626521
64	0x3dd46397	0.10370558
65	0xbda8da63	-0.08244779
66	0x3c79086d	0.015199763
67	0xbde84f18	-0.11343211
68	0x3ceed9e1	0.029156627
69	0x3b2b0345	0.0026094478
70	0x3db7234c	0.08942279
71	0x3e034d07	0.12822352
72	0xbc14a555	-0.009072621
73	0xbcc84821	-0.024448456
74	0xbc99ba90	-0.018765718
75	0xbd386f09	-0.045027766
76	0xbde9e933	-0.11421432
77	0x3e29f64f	0.16597866
78	0xbe2398a2	-0.15976194
79	0xbe1f8d66	-0.15581283
80	0xbcde44be	-0.027132388
81	0xbdca5af9	-0.09880633
82	0x3e09c646	0.13454542
83	0xbd883ae9	-0.06651861
84	0xbcce31de	-0.025170263
85	0xbe3a5601	-0.1819687
86	0x3bbc2ca6	0.005742627
87	0x3e1b68cb	0.15176694
88	0x3cd5d771	0.026103707
89	0x3c15a839	0.009134346
90	0xbde6585b	-0.11247321
91	0x3e4e1c2b	0.20127933
92	0xbe371dc0	-0.17882442
93	0xbd2f72a7	-0.04283395
94	0xbdcea4cd	-0.10090027
95	0x3cb17944	0.02166427
96	0xbd2be2db	-0.041964393
97	0x3e4de6df	0.20107602
98	0x3d02d72a	0.031943478
99	0xbe2e6f75	-0.17034705
100	0xbdb8f9c2	-0.090320125
101	0x3d099910	0.033593237
102	0xbd63d456	-0.05562242
103	0xbe88e336	-0.26735848
104	0xbe07358d	-0.13204022
105	0x3dcf0a96	0.10109441
106	0xbdb1a725	-0.086744584
107	0xbd4363ab	-0.047702473
108	0x3da16536	0.078806326
109	0x3e1c9485	0.1529103
110	0xbdb96f6b	-0.090544544
111	0xbe18c55f	-0.14919041
112	0x3d4caacf	0.049967583
113	0xbd178757	-0.036994305
114	0xbdf05618	-0.11735171
115	0x3dbab166	0.09115867
116	0x3d1fd1e7	0.039018538
117	0x3e695a68	0.22788393
118	0xbe3743f1	-0.17897011
119	0x3d58b7a9	0.052909527
120	0xbc7f3196	-0.015575787
121	0xbe4960f8	-0.19665897
122	0xbd299085	-0.04139759
123	0xbdde890e	-0.10865985
124	0x3df4c5e4	0.11951807
125	0xbc81fc0b	-0.015867254
126	0xbd38d73b	-0.045127135
127	0xbe40f318	-0.18842733
128	0xbd5c37f3	-0.053764295
129	0xbe03eb51	-0.12882735
130	0xbd758a12	-0.059946127
131	0x3cdb44d0	0.02676621
132	0x3c10695a	0.00881418
133	0xbe2ee809	-0.17080702
134	0x3cd42bb2	0.025899742
135	0x3dddce6e	0.10830389
136	0x3d6ed4e9	0.058308516
137	0x3d11609c	0.035492525
138	0xbe036224	-0.12830406
139	0xbc200cd3	-0.0097686825
140	0xbc9ee590	-0.019396573
141	0xbe888c50	-0.2666955
142	0xbc191987	-0.009344465
143	0xbd8e21d5	-0.06940047
144	0x3d7ca107	0.061677005
145	0x3950b8a2	0.00019905207
146	0xbe2e4598	-0.17018735
147	0xbb68e725	-0.0035538164
148	0x3e1bf24d	0.15229149
149	0x3e0b2bc1	0.1359091
150	0xbd8dbd36	-0.06920855
151	0xbcedbcc3	-0.029020673
152	0x3d845ba4	0.064627916
153	0x3da74aba	0.0816855
154	0xbdaded01	-0.084924705
155	0xbe07d608	-0.1326524
156	0x3c8c7790	0.017146856
157	0xbdd17c5c	-0.10228798
158	0xbd82e9f2	-0.06392278
159	0xbd37feb7	-0.04492065
160	0xbdcaf1f2	-0.09909429
161	0x3db7b73d	0.08970497
162	0x3db07c2a	0.086174324
163	0xbe2b53c4	-0.16731173
164	0x3e5234e6	0.20527992
165	0xbcada005	-0.021194467
166	0xbdeaf565	-0.114725865
167	0xbdfbafd5	-0.12289397
168	0xbc7e58d8	-0.015524112
169	0x3d7ed7e1	0.062217597
170	0xbd42a690	-0.047522128
171	0x3bb8b456	0.005636732
172	0xbcc592bb	-0.024117818
173	0xbdc55127	-0.09634619
174	0xbdb6362c	-0.08897051
175	0x3d606c02	0.054790504
176	0xbdaa97f4	-0.08329764
177	0x3d8569f5	0.0651435
178	0xbdd7d407	-0.10538488
179	0xbc5a0f20	-0.01330927
180	0xbd684727	-0.05670848
181	0x3e2a436a	0.16627279
182	0xbd9edbbf	-0.07756757
183	0x3d12ae97	0.035811033
184	0x3cd25d19	0.025679158
185	0x3d139dd0	0.036039174
186	0x3ddd52a6	0.108067796
187	0xbdcb08f1	-0.09913815
188	0xbafbb610	-0.0019204039
189	0x3ce278d8	0.027645513
190	0xbd7f8876	-0.062386
191	0x3cb509e1	0.022099437
192	0xbdc90737	-0.09815829
193	0xbd41131f	-0.047137376
194	0x3e36f717	0.17867695
195	0x3e00d604	0.1258164
196	0x3dd233e6	0.10263805
197	0xbcb399d6	-0.02192394
198	0x3da0540c	0.07828531
199	0x3dcb84b3	0.0993742
200	0x3e290cb6	0.16508755
201	0xbcbc7253	-0.023003733
202	0xbd42ccf4	-0.04755874
203	0xbd18630f	-0.037203845
204	0xbe09a2a4	-0.13440949
205	0xbdf3a44c	-0.118965715
206	0x3e3f14e3	0.18660311
207	0x3c05740a	0.008145342
208	0xbd4285f2	-0.04749102
209	0x3df2ac60	0.11849284
210	0xbca2e6f9	-0.019885527
211	0x3cfb24b3	0.030657148
212	0xbd7626c7	-0.060095575
213	0xbc5c2c86	-0.01343835
214	0xbc75c682	-0.015000941
215	0x3e6421fa	0.22278586
216	0xbd85f04c	-0.065399736
217	0x3e3d1254	0.18464023
218	0x3e16615a	0.14685574
219	0x3dcaa325	0.098943986
220	0xbe0dec61	-0.13859703
221	0x3d0abdd2	0.033872433
222	0xbb8f2548	-0.004368458
223	0x3e526de7	0.20549737
224	0xbc122245	-0.008919303
225	0x3daf3625	0.08555249
226	0x3dd257e4	0.1027067
227	0x3db13976	0.08653538
228	0xbd0a6783	-0.033790123
229	0x3d800561	0.06251026
230	0xbd74b732	-0.05974502
231	0xbcf70654	-0.030154385
232	0xbdb95b43	-0.0905061
233	0xba955109	-0.0011391948
234	0x3d63b31c	0.055590734
235	0xbd16c403	-0.036808025
236	0x3d424e12	0.047437735
237	0x3e30db14	0.17271072
238	0x3cef0a9a	0.02917986
239	0xbe376181	-0.17908289
240	0xbd657e99	-0.056028936
241	0x3d8bd7d4	0.06828275
242	0x3e052263	0.13001399
243	0x3e0dda4d	0.13852806
244	0x3d9b97cd	0.07597313
245	0xbd9e885e	-0.07740854
246	0x3d298c72	0.041393705
247	0x3e31d9ca	0.17368236
248	0xbe3d44eb	-0.18483321
249	0x3d8dfd24	0.06933048
250	0xbdd9b925	-0.10631017
251	0x3da50371	0.08057297
252	0xbe2c5034	-0.1682747
253	0xbe2ec6d0	-0.17068028
254	0x3d9f0f8f	0.077666394
255	0x3b9d738c	0.004805034

encoder.enc_layers.0.attention.out_projection.bias f4 [32]
0	0xbda7dc3c	-0.08196303
1	0xbdb43a1e	-0.088001475
2	0x3da84d58	0.08217877
3	0x3dcd7061	0.100312
4	0xbe2905b1	-0.16506077
5	0xbe18855e	-0.14894626
6	0xbd433d49	-0.047665868
7	0x3e50da8c	0.20395869
8	0x3d857a33	0.06517448
9	0xbdc8872b	-0.09791406
10	0x3dc29523	0.09501102
11	0xbc9e5e26	-0.019332003
12	0x3e0af577	0.135702
13	0x3d9e9f28	0.077452004
14	0xbe01b02a	-0.12664858
15	0xbd70a5ee	-0.058751993
16	0xbbffddbf	-0.0078084166
17	0x3d5aa283	0.05337764
18	0xbd095312	-0.033526488
19	0xbe4fbb4a	-0.20286289
20	0xbda2e11f	-0.07953095
21	0xbdb54936	-0.088518545
22	0x3e4191ac	0.18903226
23	0xbe7f097a	-0.24905959
24	0xbe2fc214	-0.17163879
25	0x3d9e72fe	0.07736777
26	0xbd801a11	-0.06254972
27	0x3d1ed198	0.038774103
28	0x3dbf9768	0.0935505
29	0x3cc6aa62	0.024251167
30	0x3d761ba6	0.06008496
31	0x3c8fcce3	0.017553752

encoder.enc_layers.0.norm1.weight f4 [32]
0	0x3f6b4fff	0.9191894
1	0x3f5958de	0.84901226
2	0x3f564fd4	0.8371556
3	0x3f5e4caf	0.8683576
4	0x3f415394	0.75518155
5	0x3f4ae5c4	0.79256845
6	0x3f56b45f	0.83868974
7	0x3f4e762b	0.8064906
8	0x3f63fb0c	0.8905494
9	0x3f412e88	0.75461626
10	0x3f3a567f	0.7278823
11	0x3f33adbe	0.70186985
12	0x3f733601	0.9500428
13	0x3f57ad26	0.8424858
14	0x3f4c50fa	0.7981106
15	0x3f589689	0.846047
16	0x3f4bf9e4	0.7967818
17	0x3f54b64f	0.8309068
18	0x3f5d0875	0.8634103
19	0x3f6adfc1	0.9174767
20	0x3f62d4e1	0.8860608
21	0x3f386867	0.72034305
22	0x3f472a24	0.77798676
23	0x3f532294	0.8247464
24	0x3f4c59ec	0.7982471
25	0x3f563b22	0.8368398
26	0x3f669ffe	0.9008788
27	0x3f6bb948	0.9207959
28	0x3f46cb7c	0.7765424
29	0x3f572e4b	0.8405501
30	0x3f59edec	0.85128665
31	0x3f4ab45e	0.7918147

encoder.enc_layers.0.norm1.bias f4 [32]
0	0xbd989105	-0.07449535
1	0xbdb52654	-0.08845201
2	0x3d1fa14a	0.038972177
3	0xbd1fb917	-0.038994875
4	0xbcef1dbf	-0.029188989
5	0xbccb7619	-0.024836587
6	0x3d2ea3a3	0.042636525
7	0x3d2c466c	0.042059347
8	0x3d037adb	0.032099586
9	0xbd34abb2	-0.044109054
10	0x3a9fb0c3	0.0012183416
11	0x3cb98260	0.022645175
12	0x3d43f27e	0.04783868
13	0x3d85d755	0.06535212
14	0xbc4a6f99	-0.0123557085
15	0xbd870964	-0.06593588
16	0x3d515cda	0.05111394
17	0x3c5a943d	0.013341007
18	0x3c892dff	0.016745565
19	0xbce5e4d5	-0.028063217
20	0xbd56dbc1	-0.052455667
21	0xbd03d9ad	-0.032190014
22	0x3d4e4389	0.050357375
23	0xbdb224cb	-0.08698424
24	0xbdca3854	-0.09874025
25	0xbd3846dd	-0.044989455
26	0x3c39c843	0.01133925
27	0x3d7458a7	0.059654858
28	0xbc39674c	-0.011316132
29	0xbd64bf71	-0.055846635
30	0x3dccbefe	0.09997366
31	0x3ca9b1f8	0.020714745

encoder.enc_layers.0.norm2.weight f4 [32]
0	0x3f614810	0.88000584
1	0x3f452392	0.770074
2	0x3f5b683d	0.8570593
3	0x3f57b708	0.8426366
4	0x3f3c970a	0.7366797
5	0x3f4646ad	0.7745159
6	0x3f529de7	0.8227219
7	0x3f2f0947	0.6837353
8	0x3f54c5bc	0.8311422
9	0x3f5487ab	0.8301951
10	0x3f40f437	0.7537264
11	0x3f278723	0.6544058
12	0x3f740db5	0.95333415
13	0x3f59daa5	0.8509925
14	0x3f4de824	0.80432343
15	0x3f5a3fd1	0.85253626
16	0x3f4ed24c	0.8078964
17	0x3f5c8abf	0.8614921
18	0x3f586533	0.8452942
19	0x3f6bfcb4	0.9218247
20	0x3f576872	0.84143746
21	0x3f54f907	0.83192486
22	0x3f54f62c	0.8318813
23	0x3f45177d	0.76988965
24	0x3f3ca387	0.7368702
25	0x3f552645	0.8326152
26	0x3f5f48a8	0.8722024
27	0x3f62fe3d	0.88669187
28	0x3f51abc6	0.8190273
29	0x3f537bc7	0.82610744
30	0x3f521702	0.8206636
31	0x3f427e15	0.75973636
