weights/OneStepFormer/MOT20/mot20_ckpt.pth.tar (torch, 448295 bytes, 205 tensors)

enc_embedding.weight f4 [32, 4]
000000 2b 37 9c be 9b ae 6e 3d 83 b0 bb be d1 83 9e 3e
       -0.3051084 0.058271986 -0.36658105 0.30959943
000010 c2 46 8f be e3 73 cd be 01 be dc bc db 59 45 3e
       -0.2798367 -0.40127477 -0.02694607 0.19272558
000020 e8 f9 3e 3e d1 f1 ff bd 7f 8b b1 bd 93 a8 ad 3e
       0.18650019 -0.12497295 -0.08669185 0.33917674
000030 03 13 5e 3d 2d 5c 77 3e c6 b6 95 3b 84 03 e2 be
       0.05421735 0.24156256 0.0045689074 -0.44143307
000040 30 47 87 3d c2 6d 88 3e cf 3e 8a be 4a 62 93 3e
       0.06605375 0.2664624 -0.27001044 0.28785926
000050 d9 ee 25 3d 39 18 72 3c 59 7e a9 3e a6 74 a8 3e
       0.040510986 0.014776283 0.33104208 0.32901496
000060 42 9d c1 3c 91 4e a3 ba 1d 54 9a 3e 39 17 12 3e
       0.023634557 -0.0012459328 0.30142298 0.14266671
000070 f6 f6 0e be 8b b8 32 3e 43 43 e2 3e c6 93 9b 3e
       -0.13961396 0.1745321 0.44191942 0.3038618
000080 a3 27 09 3e 3c 43 8b 3e 28 3f 2c be f7 ff 19 3e
       0.13394026 0.27199733 -0.16820967 0.15039049
000090 d0 0b 35 bc 74 58 d9 bb fa 1e 1c 3e d0 ae b7 bd
       -0.01105018 -0.006632859 0.15246192 -0.0896889
0000a0 fd 87 c9 3e 5d 63 0c be 0a bf 23 3e 19 6a 01 3f
       0.39361563 -0.13709779 0.15990844 0.5055252
0000b0 f7 80 72 be ed c9 bf 3e b1 91 78 3e 1a d9 85 3e
       -0.23682009 0.37458745 0.24274327 0.26142198
0000c0 fb 43 b9 3e b6 0f a8 bd 41 02 1c be 0c e0 20 be
       0.36184677 -0.082061216 -0.15235235 -0.15710467
0000d0 de 97 d3 3e 97 4d 00 3e c7 fb cd 3e d8 50 7b be
       0.41326803 0.12529598 0.40231153 -0.24542558
0000e0 20 4c 82 3e 8d 41 f9 3e 18 fc a0 3e 3a 77 a5 3e
       0.25448704 0.48682824 0.31442332 0.32317525
0000f0 20 9b 22 be 15 9a 0a be 1f e0 d9 be 69 03 4d 3e
       -0.15879488 -0.1353534 -0.42553803 0.20020832
000100 3a 41 43 3e 97 6a 81 3d b5 8d 32 bc ea 7d d3 3e
       0.1906785 0.063191585 -0.010898043 0.41307002
000110 81 fa b5 be 6c 3e 02 3d b4 cf f0 bc d6 4d bf 3e
       -0.35542682 0.03179781 -0.029395916 0.37364072
000120 d6 ef be 3d 38 cd d9 3d 4f ef 80 3e 03 15 ee be
       0.09323089 0.106348455 0.25182578 -0.46500406
000130 f2 14 b4 bc f3 5a 40 3d d9 c1 be bd 00 1e 9c 3d
       -0.021982644 0.046961736 -0.09314317 0.076229095
000140 57 38 95 bd 5b 05 be 3e c8 1d 46 be c4 43 45 be
       -0.072861366 0.3711346 -0.19347298 -0.19264132
000150 a6 cc 04 be 7b cf ba be 33 fc 80 3d 76 68 b6 bd
       -0.12968692 -0.3648642 0.06298103 -0.08906643
000160 03 0b 7d bd cc 30 c1 3e ca 8e 57 3d 33 07 09 3e
       -0.06177808 0.37732542 0.05262641 0.13381653
000170 7a 4a fb bd 7b 18 f4 3e fe a1 d6 be a9 52 10 3e
       -0.12270065 0.47674927 -0.41920465 0.14094032
000180 c9 e4 4a 3e 4e 78 9f be ca fc 4f 3d fb 76 f1 3e
       0.19813837 -0.31146473 0.050778188 0.47161087
000190 b2 98 2b bd de 18 29 3e f9 80 9c bd 2a 73 68 3e
       -0.04189367 0.16513392 -0.07641787 0.22700182
0001a0 dc 6c c6 be c9 61 44 3e 3b 25 ba be 8e a6 c3 3d
       -0.38754928 0.19177927 -0.3635653 0.09553252
0001b0 a4 89 d6 3d 1d 13 7d 3e a6 0c a7 3d 1a 27 4f 3e
       0.104754716 0.24714322 0.081567094 0.2022976
0001c0 0d 09 b2 bd 05 bf 68 be 1b 76 98 3d 31 55 b2 be
       -0.086931325 -0.22729118 0.07444402 -0.3483062
0001d0 32 5f 17 3e f6 84 fe 3d 9d e6 76 3e a4 b8 94 be
       0.14782408 0.12427704 0.2411141 -0.2904712
0001e0 81 af 9d 3d 24 24 3b be cf b9 8c be ed f5 00 bf
       0.0769949 -0.18275505 -0.2748551 -0.5037525
0001f0 80 b7 44 3e b0 ef b9 3e 4b 6a c3 3d 2d 5c ec bd
       0.19210625 0.3631568 0.09541758 -0.11541019

enc_embedding.bias f4 [32]
000000 e7 65 be 3d 77 58 76 be 93 9c 97 be a8 f1 93 3e
       0.0929678 -0.24057184 -0.29611644 0.28895307
000010 2e 62 90 be 89 38 9e 3b 6a 7b c7 3e 3b 2d 97 bd
       -0.28199905 0.004828517 0.38961345 -0.07381674
000020 47 75 d7 bd 5d 41 2a 3f 3c 64 e3 be 59 cd df 3b
       -0.10520416 0.66505986 -0.4441241 0.0068298993
000030 35 1c 9e be 55 ea 99 bd c6 86 73 be 3b eb 4b be
       -0.30880895 -0.075153984 -0.2378188 -0.19913952
000040 14 3a c5 bd df f3 72 3c 49 19 f6 3d 9b d3 34 3e
       -0.09630218 0.014828651 0.120165415 0.17658846
000050 b5 bc fc 3d 08 f6 be be dc 5e 94 bc a6 a3 29 be
       0.123406805 -0.37297082 -0.018111639 -0.16566333
000060 e8 01 14 bd 8d 80 7a be b4 d8 39 3e ae 5c eb be
       -0.03613463 -0.244631 0.18149072 -0.45969146
000070 3e 05 00 3e d5 7c af bc de f0 35 be 1a 35 42 bd
       0.12502 -0.02142183 -0.17767665 -0.047413923

dec_embedding.weight f4 [32, 4]
000000 79 70 9d bc ac f8 a6 3e 66 56 7a be 71 5f a2 be
       -0.01921867 0.32611597 -0.24447021 -0.3171344
000010 3f db 8f bd 9d 43 ef bc 08 ee 65 be e4 cd ac 3e
       -0.0702424 -0.029207045 -0.22454083 0.33750832
000020 7c 12 1c be f9 fb 5d be 87 62 7c be 4b 60 c3 bd
       -0.15241426 -0.21678151 -0.2464696 -0.09539851
000030 29 1e 18 3e 03 f1 92 bd cd 47 82 bd d3 9e 6b 3d
       0.14855255 -0.071748756 -0.06361351 0.057524513
000040 25 c7 42 3d 0c ac b4 3d 93 6c 6c 3e 9d c4 03 be
       0.0475532 0.08821878 0.23088293 -0.12867971
000050 66 14 44 be 6d 76 aa be e6 a9 60 bd c1 62 97 3e
       -0.19148406 -0.33293477 -0.054849528 0.2956753
000060 48 c0 8b be b3 68 e7 3d 1c f7 3c 3e ce 5b 91 3e
       -0.27295136 0.11299267 0.1845364 0.28390354
000070 dc 85 97 be 68 c0 3a 3e 69 8a a4 3e c0 6c 68 3d
       -0.29594314 0.1823746 0.3213685 0.056744337
000080 8f 46 90 be 74 3a 10 be 64 a9 95 be a2 cd 61 3e
       -0.28178832 -0.14084798 -0.29230797 0.22051099
000090 45 75 a6 be 20 a3 99 3d 66 f6 cf bd 2c b0 d8 bd
       -0.32511345 0.07501817 -0.10154419 -0.10580477
0000a0 7c c3 a2 3e 0d 8e 5c 3d 81 db 1d be 7a 56 67 3e
       0.31789768 0.053846408 -0.15415765 0.22591582
0000b0 86 17 8a bd ed cb 43 3e d9 32 93 3e 5f 03 c9 3d
       -0.06742768 0.1912076 0.2874973 0.09815096
0000c0 0f 71 cb 3c e8 b8 58 3e 79 65 68 3e ef 12 29 3e
       0.024834184 0.21164286 0.22694959 0.16511129
0000d0 1f c5 f5 3d 6f d7 38 3e 37 6e c8 bc b2 5f 2c bd
       0.120004885 0.18050931 -0.024466617 -0.04208345
0000e0 48 c2 6c 3d 56 03 d4 bd 62 9a 34 3e ee 3c e3 bd
       0.05780247 -0.10352199 0.17637017 -0.11095606
0000f0 42 ba b3 bd fa 6f 50 3e d7 5f 52 3e 00 69 ab be
       -0.0877576 0.20355216 0.20544372 -0.33478546
000100 c0 9a 4a bd d1 31 ab be bf f7 4a bd 37 2c ba bd
       -0.049463987 -0.33436444 -0.049552675 -0.090904646
000110 40 8d aa 3e d8 f5 71 be b5 d2 67 3e 0d a4 b0 3d
       0.3331089 -0.23628938 0.22638972 0.0862504
000120 26 5e 19 be eb 4d 16 bd ee 64 e6 bd a3 ec 6d 3e
       -0.14977321 -0.036695402 -0.112497196 0.23234801
000130 70 94 2b 3e 38 54 60 be 5d 95 83 3e 0b 4c 8e bd
       0.16755843 -0.21907127 0.25699893 -0.06948098
000140 6e d2 92 3e 76 3c 84 3d ad 03 a3 be c0 1e 3c 3e
       0.2867617 0.064568445 -0.31838742 0.18371105
000150 df 62 f1 3c ee 9a a3 3e 91 f8 15 be f9 9e 9f be
       0.02946609 0.3195414 -0.14645602 -0.31175974
000160 b4 8c 03 be 9f af 44 3e c7 69 46 3e f9 f6 0b be
       -0.12846643 0.19207619 0.19376288 -0.13668431
000170 ce 87 1f 3e ce 1a 9c be 99 98 4a 3e e9 b1 ad 3d
       0.15579149 -0.304892 0.19784774 0.08481199
000180 7c 68 76 3d 47 d0 4b 3d 35 09 f2 bd 3d 46 52 3e
       0.060158238 0.049759176 -0.11818162 0.20534606
000190 92 09 14 3e ff b5 b2 3d 20 ce d5 bc 44 c2 29 3e
       0.14456776 0.08726119 -0.026099265 0.16578013
0001a0 fe aa 78 3e 57 7c 8d be c3 d1 5f be 08 1f 93 3e
       0.24283978 -0.27633926 -0.21857361 0.28734612
0001b0 1e 54 19 3d 28 ad 51 be de 47 58 3e 63 fb 5f 3e
       0.037433736 -0.2047621 0.21121165 0.2187324
0001c0 7b 14 24 be 00 32 89 be 1f 03 aa be 39 39 9c 3e
       -0.16023438 -0.2679596 -0.33205506 0.30512407
0001d0 a4 37 87 be 54 ab 01 3e 8d 06 55 3e 56 21 48 3d
       -0.26409638 0.12663013 0.2080328 0.048859917
0001e0 29 47 d9 bd 0f e3 86 3e 7b e3 94 bd f3 77 6d 3e
       -0.10609276 0.26345107 -0.07269951 0.23190288
0001f0 19 6f 59 be b8 bf 7f be 3a f1 01 be 6c 74 13 3d
       -0.21233787 -0.24975479 -0.12689677 0.0359997

dec_embedding.bias f4 [32]
000000 d6 0b f8 3c b6 84 0d be 3b 4a 91 be 1f c1 6f 3e
       0.030279081 -0.13820156 -0.28376946 0.23413514
000010 c1 31 5d be ac fc 45 be 40 11 47 3e c9 76 20 be
       -0.21601011 -0.19334668 0.19440174 -0.15670313
000020 02 73 5f bf 58 52 71 3d 22 79 ef be 56 2f 09 bf
       -0.87284863 0.05891642 -0.46772105 -0.53587854
000030 0a 88 9f 3e cb 41 3f be 9f 1f aa be eb 24 65 3d
       0.31158477 -0.18677442 -0.3322725 0.05594341
000040 34 c6 db 3c e1 b2 d1 be ff 2e f1 bd ed df fa bb
       0.026827909 -0.40956786 -0.11776542 -0.0076560886
000050 cd ea e1 bd 57 8b 85 bd 2f 48 6a bd 0f b6 5d 3e
       -0.11031113 -0.065207176 -0.057197746 0.21651481
000060 90 24 32 3a f1 9b 1e bf 32 c0 bf bc bf df 21 be
       0.00067956094 -0.619567 -0.023407076 -0.15808009
000070 a6 ac 65 3e 63 02 c3 bd 9f b3 88 3c 4f d8 1d 3f
       0.22429141 -0.095219396 0.016687213 0.61658186

pos_proj.pe f4 [1, 40, 32]
000000 00 00 00 00 00 00 80 3f 00 00 00 00 00 00 80 3f
       0.0 1.0 0.0 1.0
000010 00 00 00 00 00 00 80 3f 00 00 00 00 00 00 80 3f
       0.0 1.0 0.0 1.0
000020 00 00 00 00 00 00 80 3f 00 00 00 00 00 00 80 3f
       0.0 1.0 0.0 1.0
000030 00 00 00 00 00 00 80 3f 00 00 00 00 00 00 80 3f
       0.0 1.0 0.0 1.0
000040 00 00 00 00 00 00 80 3f 00 00 00 00 00 00 80 3f
       0.0 1.0 0.0 1.0
000050 00 00 00 00 00 00 80 3f 00 00 00 00 00 00 80 3f
       0.0 1.0 0.0 1.0
000060 00 00 00 00 00 00 80 3f 00 00 00 00 00 00 80 3f
       0.0 1.0 0.0 1.0
000070 00 00 00 00 00 00 80 3f 00 00 00 00 00 00 80 3f
       0.0 1.0 0.0 1.0
000080 a4 6a 57 3f 41 51 0a 3f ba 7d 08 3f 0d 94 58 3f
       0.84147096 0.54030234 0.53316844 0.8460091
000090 3e 39 9f 3e 6b 4e 73 3f 3a 23 35 3e 83 f6 7b 3f
       0.3109836 0.9504153 0.17689219 0.9842302
0000a0 76 75 cc 3d 98 b8 7e 3f ae 36 66 3d 68 98 7f 3f
       0.099833414 0.9950042 0.05620449 0.9984193
0000b0 5b 81 01 3d 3c df 7f 3f 42 ab 91 3c a3 f5 7f 3f
       0.031617504 0.99950004 0.017781857 0.99984187
0000c0 57 d6 23 3c b9 fc 7f 3f 5a 44 b8 3b f7 fe 7f 3f
       0.009999833 0.99995 0.0056233825 0.9999842
0000d0 1c 3e 4f 3b ac ff 7f 3f 20 15 e9 3a e6 ff 7f 3f
       0.0031622713 0.999995 0.0017782785 0.99999845
0000e0 6d 12 83 3a f8 ff 7f 3f 13 6a 13 3a fd ff 7f 3f
       0.0009999998 0.9999995 0.0005623411 0.9999998
0000f0 61 cb a5 39 ff ff 7f 3f 53 77 3a 39 00 00 80 3f
       0.00031622782 0.99999994 0.00017782794 1.0
000100 b7 c7 68 3f 33 11 d5 be 0a f2 66 3f b2 e8 dc 3e
       0.9092974 -0.41614684 0.9021307 0.43146282
000110 1b 54 17 3f ec 7b 4e 3f f6 47 b2 3e a6 fa 6f 3f
       0.5911271 0.8065784 0.34820527 0.93741834
000120 f8 6f 4b 3e a5 e5 7a 3f 86 d9 e5 3d f3 61 7e 3f
       0.19866931 0.9800666 0.1122313 0.9936821
000130 c8 70 81 3d f9 7c 7f 3f 5c a5 11 3d 8e d6 7f 3f
       0.063203394 0.9980007 0.03555809 0.9993676
000140 3e d4 a3 3c e5 f2 7f 3f 9b 43 38 3c db fb 7f 3f
       0.019998666 0.9998 0.011246587 0.99993676
000150 d8 3d cf 3b b1 fe 7f 3f 08 15 69 3b 96 ff 7f 3f
       0.006324511 0.99998003 0.0035565514 0.9999937
000160 68 12 03 3b df ff 7f 3f 12 6a 93 3a f5 ff 7f 3f
       0.0019999985 0.99999803 0.0011246821 0.99999934
000170 60 cb 25 3a fd ff 7f 3f 53 77 ba 39 ff ff 7f 3f
       0.0006324556 0.9999998 0.00035565588 0.99999994
000180 c3 81 10 3e 26 70 7d bf d7 45 7e 3f ab 7f ed bd
       0.14112 -0.9899925 0.9932532 -0.11596616
000190 c2 09 50 3f 58 2f 15 3f 6c 2f 02 3f 29 6d 5c 3f
       0.8126489 0.58275366 0.5085361 0.86104065
0001a0 6c 4e 97 3e ef 90 74 3f d7 ee 2b 3e 9e 5d 7c 3f
       0.2955202 0.9553365 0.16790329 0.9858035
0001b0 c0 ff c1 3d 4f d9 7e 3f 4e 69 5a 3d c3 a2 7f 3f
       0.094726086 0.99550337 0.053323083 0.9985773
0001c0 1f b9 f5 3c 83 e2 7f 3f c6 31 8a 3c ad f6 7f 3f
       0.0299955 0.99955004 0.016869437 0.9998577
0001d0 0d 6e 1b 3c 0d fd 7f 3f a8 cf ae 3b 11 ff 7f 3f
       0.009486687 0.999955 0.005334813 0.99998575
0001e0 92 9b 44 3b b5 ff 7f 3f 17 1f dd 3a e8 ff 7f 3f
       0.0029999954 0.9999955 0.0016870227 0.99999857
0001f0 10 b1 78 3a f9 ff 7f 3f 7e d9 0b 3a fe ff 7f 3f
       0.00094868336 0.9999996 0.0005334838 0.9999999
000200 cf bd 41 bf 30 55 27 bf ec 49 47 3f 9e af 20 bf
       -0.7568025 -0.6536436 0.7784717 -0.6276797
000210 de 1d 74 3f b1 2e 9a 3e bc 1f 27 3f ed eb 41 3f
       0.95358074 0.30113748 0.652828 0.7575062
000220 d7 61 c7 3e a7 ca 6b 3f c5 65 64 3e 09 8d 79 3f
       0.38941833 0.921061 0.22304447 0.9748083
000230 88 2e 01 3e 69 f4 7d 3f c8 8d 91 3d 46 5a 7f 3f
       0.12615407 0.99201065 0.07107121 0.9974712
000240 db cb 23 3d 94 cb 7f 3f a0 40 b8 3c 6c ef 7f 3f
       0.039989334 0.9992001 0.022491753 0.99974704
000250 c9 3c 4f 3c c2 fa 7f 3f a7 14 e9 3b 58 fe 7f 3f
       0.01264877 0.99992 0.0071130577 0.9999747
000260 57 12 83 3b 7a ff 7f 3f 0c 6a 13 3b d6 ff 7f 3f
       0.003999989 0.999992 0.0022493629 0.9999975
000270 5e cb a5 3a f3 ff 7f 3f 52 77 3a 3a fc ff 7f 3f
       0.0012649109 0.9999992 0.0007113117 0.99999976
000280 10 7c 75 bf 2c 3c 91 3e d8 da a5 3e 40 32 72 bf
       -0.9589243 0.2836622 0.32393527 -0.94607925
000290 7f fc 7f 3f e9 72 29 bc ab ca 46 3f f1 4c 21 3f
       0.99994653 -0.010342338 0.77652997 0.6300803
0002a0 43 77 f5 3e 40 a9 60 3f ed 11 8e 3e 7c f2 75 3f
       0.47942552 0.87758255 0.2774805 0.96073127
0002b0 1d 3c 21 3e 81 ce 7c 3f 21 db b5 3d 1e fd 7e 3f
       0.15745588 0.987526 0.08879686 0.99604976
0002c0 f4 b6 4c 3d 19 ae 7f 3f fb 4d e6 3c 19 e6 7f 3f
       0.049979165 0.99875027 0.028113356 0.99960476
0002d0 7e 85 81 3c cf f7 7f 3f bb ac 11 3c 69 fd 7f 3f
       0.015810724 0.999875 0.00889128 0.9999605
0002e0 dd d6 a3 3b 2e ff 7f 3f 89 44 38 3b be ff 7f 3f
       0.004999979 0.9999875 0.0028117022 0.99999607
0002f0 33 3e cf 3a eb ff 7f 3f 26 15 69 3a f9 ff 7f 3f
       0.0015811383 0.99999875 0.0008891396 0.9999996
000300 8c 0f 8f be b8 cd 75 3f 76 e5 6b be 53 1d 79 bf
       -0.2794155 0.96017027 -0.23036751 -0.9731037
000310 4e 78 72 3f 6d 3f a4 be 88 30 60 3f 35 2f f7 3e
       0.9471482 -0.3207964 0.8757405 0.48278204
000320 68 8c 10 3f 32 49 53 3f fc 7d a9 3e e2 90 71 3f
       0.5646424 0.8253356 0.3310393 0.943617
000330 6e 20 41 3e e3 67 7b 3f c2 19 da 3d 51 8b 7e 3f
       0.18860027 0.98205394 0.10649444 0.9943133
000340 d1 9c 75 3d 12 8a 7f 3f be 2c 0a 3d b3 da 7f 3f
       0.059964005 0.99820054 0.033734076 0.99943084
000350 43 6c 9b 3c 34 f4 7f 3f 05 cf 2e 3c 45 fc 7f 3f
       0.018972522 0.99982 0.0106694745 0.9999431
000360 58 9b c4 3b d2 fe 7f 3f 03 1f 5d 3b a1 ff 7f 3f
       0.0059999637 0.999982 0.0033740408 0.99999434
000370 08 b1 f8 3a e2 ff 7f 3f 7c d9 8b 3a f7 ff 7f 3f
       0.0018973658 0.9999982 0.0010669674 0.99999946
000380 46 30 28 3f bd ff 40 3f 70 b6 36 bf 5e 4f 33 bf
       0.6569866 0.75390226 -0.7137213 -0.7004298
000390 6e e8 4c 3f bc 74 19 bf 44 84 72 3f ba f8 a3 3e
       0.8004216 -0.5994375 0.9473307 0.320257
0003a0 72 eb 24 3f b3 cc 43 3f de 60 c4 3e c6 6b 6c 3f
       0.6442176 0.7648422 0.38355154 0.9235195
0003b0 50 d3 60 3e ea c0 79 3f ba 46 fe 3d e9 04 7e 3f
       0.2195561 0.9755999 0.12415834 0.9922624
0003c0 32 3e 8f 3d 81 5f 7f 3f 5e 31 21 3d 3b cd 7f 3f
       0.06994285 0.997551 0.03935372 0.9992253
0003d0 a2 52 b5 3c f2 ef 7f 3f 2a f1 4b 3c ec fa 7f 3f
       0.022134129 0.999755 0.012447635 0.9999225
0003e0 c5 5f e5 3b 65 fe 7f 3f bc fc 80 3b 7e ff 7f 3f
       0.006999942 0.9999755 0.0039363783 0.99999225
0003f0 ed 11 11 3b d7 ff 7f 3f 66 28 a3 3a f3 ff 7f 3f
       0.0022135929 0.99999756 0.0012447953 0.9999992

norm1.weight f4 [32]
000000 00 00 80 3f 00 00 80 3f 00 00 80 3f 00 00 80 3f
       1.0 1.0 1.0 1.0
000010 00 00 80 3f 00 00 80 3f 00 00 80 3f 00 00 80 3f
       1.0 1.0 1.0 1.0
000020 00 00 80 3f 00 00 80 3f 00 00 80 3f 00 00 80 3f
       1.0 1.0 1.0 1.0
000030 00 00 80 3f 00 00 80 3f 00 00 80 3f 00 00 80 3f
       1.0 1.0 1.0 1.0
000040 00 00 80 3f 00 00 80 3f 00 00 80 3f 00 00 80 3f
       1.0 1.0 1.0 1.0
000050 00 00 80 3f 00 00 80 3f 00 00 80 3f 00 00 80 3f
       1.0 1.0 1.0 1.0
000060 00 00 80 3f 00 00 80 3f 00 00 80 3f 00 00 80 3f
       1.0 1.0 1.0 1.0
000070 00 00 80 3f 00 00 80 3f 00 00 80 3f 00 00 80 3f
       1.0 1.0 1.0 1.0

norm1.bias f4 [32]
000000 00 00 00 00 00 00 00 00 00 00 00 00 00 00 00 00
       0.0 0.0 0.0 0.0
000010 00 00 00 00 00 00 00 00 00 00 00 00 00 00 00 00
       0.0 0.0 0.0 0.0
000020 00 00 00 00 00 00 00 00 00 00 00 00 00 00 00 00
       0.0 0.0 0.0 0.0
000030 00 00 00 00 00 00 00 00 00 00 00 00 00 00 00 00
       0.0 0.0 0.0 0.0
000040 00 00 00 00 00 00 00 00 00 00 00 00 00 00 00 00
       0.0 0.0 0.0 0.0
000050 00 00 00 00 00 00 00 00 00 00 00 00 00 00 00 00
       0.0 0.0 0.0 0.0
000060 00 00 00 00 00 00 00 00 00 00 00 00 00 00 00 00
       0.0 0.0 0.0 0.0
000070 00 00 00 00 00 00 00 00 00 00 00 00 00 00 00 00
       0.0 0.0 0.0 0.0

norm2.weight f4 [32]
000000 00 00 80 3f 00 00 80 3f 00 00 80 3f 00 00 80 3f
       1.0 1.0 1.0 1.0
000010 00 00 80 3f 00 00 80 3f 00 00 80 3f 00 00 80 3f
       1.0 1.0 1.0 1.0
000020 00 00 80 3f 00 00 80 3f 00 00 80 3f 00 00 80 3f
       1.0 1.0 1.0 1.0
000030 00 00 80 3f 00 00 80 3f 00 00 80 3f 00 00 80 3f
       1.0 1.0 1.0 1.0
000040 00 00 80 3f 00 00 80 3f 00 00 80 3f 00 00 80 3f
       1.0 1.0 1.0 1.0
000050 00 00 80 3f 00 00 80 3f 00 00 80 3f 00 00 80 3f
       1.0 1.0 1.0 1.0
000060 00 00 80 3f 00 00 80 3f 00 00 80 3f 00 00 80 3f
       1.0 1.0 1.0 1.0
000070 00 00 80 3f 00 00 80 3f 00 00 80 3f 00 00 80 3f
       1.0 1.0 1.0 1.0

norm2.bias f4 [32]
000000 00 00 00 00 00 00 00 00 00 00 00 00 00 00 00 00
       0.0 0.0 0.0 0.0
000010 00 00 00 00 00 00 00 00 00 00 00 00 00 00 00 00
       0.0 0.0 0.0 0.0
000020 00 00 00 00 00 00 00 00 00 00 00 00 00 00 00 00
       0.0 0.0 0.0 0.0
000030 00 00 00 00 00 00 00 00 00 00 00 00 00 00 00 00
       0.0 0.0 0.0 0.0
000040 00 00 00 00 00 00 00 00 00 00 00 00 00 00 00 00
       0.0 0.0 0.0 0.0
000050 00 00 00 00 00 00 00 00 00 00 00 00 00 00 00 00
       0.0 0.0 0.0 0.0
000060 00 00 00 00 00 00 00 00 00 00 00 00 00 00 00 00
       0.0 0.0 0.0 0.0
000070 00 00 00 00 00 00 00 00 00 00 00 00 00 00 00 00
       0.0 0.0 0.0 0.0

encoder.enc_layers.0.attention.query_projection.weight f4 [32, 32]
000000 5d a1 62 3d 25 5f d5 bd ac c0 df 3d 38 a5 c7 bd
       0.05532967 -0.10418538 0.10925421 -0.0974831
000010 0f ba 2a 3e 2c 41 93 bd a5 f9 55 be 82 de 64 be
       0.16672538 -0.07190165 -0.20896013 -0.22350505
000020 c7 5f 34 3e ea d3 52 be 56 3b 08 3e dd 7c d2 3b
       0.17614661 -0.20588651 0.13303885 0.0064235763
000030 03 20 2a 3e a0 42 1e 3e a6 53 29 be 55 a9 e7 3c
       0.16613774 0.15455103 -0.16535816 0.028278986
000040 90 b7 24 3d f9 49 0a 3e 2e c2 0c 3e 74 fc 4a 3b
       0.04021412 0.13504781 0.13745949 0.0030973228
000050 d4 d9 a1 3d e6 13 a7 3b fe 34 65 bc e7 7d 17 3e
       0.079028755 0.0050988076 -0.013989685 0.14794122
000060 34 2a 12 3d 38 5a 6a 3d 49 f8 61 3d a4 97 0d bd
       0.03568478 0.057214946 0.055168424 -0.034568444
000070 68 66 a7 3d 46 7e af 3c 31 35 bc bc c0 b3 0e 3e
       0.08173829 0.021422517 -0.022974582 0.13935757
000080 bd 52 b8 3d 93 78 08 3e 4c a6 88 3d ba de ae bd
       0.09000156 0.13327245 0.066723436 -0.085385755
000090 43 7c 40 bc 6f 4a 13 be 81 5b 14 be 98 ad c4 3d
       -0.011748376 -0.14383863 -0.14488031 0.09603423
0000a0 bf da 0a bd ce a6 71 3d c8 0f de 3b 83 8d 10 3d
       -0.03390002 0.058996968 0.0067767836 0.035291206
0000b0 2e da 49 bd f5 e3 a6 3d 81 56 14 be e7 f3 7c bd
       -0.049280338 0.08148948 -0.14486124 -0.06175604
0000c0 78 9c 44 bd 39 c1 b4 3b 0b b3 f2 3d 86 ec 4c 3d
       -0.048000783 0.005516198 0.11850556 0.050030254
0000d0 23 5b 8a 3d c4 16 3f bb 42 54 6f bd a0 22 aa 3d
       0.06755664 -0.0029157856 -0.058429964 0.083073854
0000e0 52 1a 99 3d 78 06 13 3e 3d 47 70 bd 9f ca 18 3e
       0.07475723 0.14357936 -0.058661688 0.14921044
0000f0 24 c9 f5 3d b6 e0 09 3e e6 f7 34 bd 9b 28 8b bc
       0.12001255 0.13464627 -0.044181727 -0.016987136
000100 d9 d4 90 bd ca da 20 3d 4d 72 0e bd d0 39 1f bd
       -0.070718475 0.039271154 -0.034776974 -0.038873494
000110 cc 64 d3 bd d8 7f 8c 3d d1 cc ca ba 3e 75 4d 3e
       -0.1032196 0.06860322 -0.0015472417 0.20064256
000120 f0 ee 0b 3d d9 15 83 bd 0a 78 1b 3d 3a dd 19 bd
       0.034163415 -0.064006515 0.037956275 -0.037564494
000130 29 b4 dd bd 2d c6 bf bc a0 85 8a 3d 1c 1e d3 bb
       -0.108253784 -0.023409927 0.06763768 -0.0064427983
000140 f3 87 e9 bb 2c dc e4 bd 3d 8d 09 bd 63 b2 ca bd
       -0.007126802 -0.11174807 -0.03358196 -0.09897306
000150 ac a7 85 3c 76 58 35 be bb 62 86 bc 08 0e a4 bd
       0.016315304 -0.17709526 -0.0164045 -0.08010489
000160 6c f2 3a 3b 50 5d 02 be e8 85 46 bd b5 69 a1 bc
       0.0028525842 -0.12730908 -0.048467547 -0.019703725
000170 30 88 f8 bc a2 85 a2 3c e2 ca 94 bc ea 98 17 bc
       -0.030338377 0.019839112 -0.018163148 -0.009252766
000180 d5 f6 df 3d d3 c1 30 3c a4 9a 5e bd 63 1b e1 3d
       0.10935751 0.010788399 -0.054346696 0.10991552
000190 3f f6 6b be b3 0c c8 3d 12 45 24 3e 3f 58 dd 3c
       -0.23043154 0.09768047 0.16041973 0.027019618
0001a0 40 35 46 bd 17 97 7e 3c 52 46 6b bd 00 d2 a3 bc
       -0.048390627 0.015538952 -0.05744011 -0.019997597
0001b0 0a 33 4d bd d6 12 90 3c 39 07 92 bb 39 65 51 bd
       -0.050097503 0.017587107 -0.0044564274 -0.051121924
0001c0 ab 02 3a bd 5e ba 1d 3c ae 34 52 3a 20 ae e7 bd
       -0.0454127 0.009626953 0.0008018714 -0.113125086
0001d0 8c c9 f6 bc 01 72 c5 bc ec cd bc 3d c3 0b e6 3c
       -0.030125402 -0.024102213 0.09218964 0.02808178
0001e0 ad d8 15 be e0 54 b9 bd 1c ba 13 3e 40 26 f2 bd
       -0.14633437 -0.09049392 0.14426464 -0.11823702
0001f0 5e 49 b4 bc e4 a8 26 be da 9b a8 3c 6b 09 f6 bd
       -0.02200764 -0.16275364 0.020582128 -0.12013515
000200 52 34 9e bd 30 60 33 3e cc 88 ba 3c bc a4 45 3d
       -0.07724823 0.17517161 0.022770308 0.048252806
000210 c1 23 a0 bd bf 35 86 bc 0d eb c6 3b 96 0b d0 3b
       -0.078193195 -0.01638305 0.0060705007 0.0063490374
000220 1a f4 80 3d 76 3d ba 3d 03 63 52 3c fb 3b a3 bd
       0.06296559 0.09093754 0.012840989 -0.07970425
000230 76 73 d4 bd b5 cd 9b bd 93 4d 0e 3d 0b 11 66 3d
       -0.10373585 -0.07607595 0.03474195 0.056168597
000240 5b e2 00 be 39 56 0a 3e 08 f1 d3 3c 87 96 73 3d
       -0.12586348 0.13509454 0.025871769 0.059469726
000250 27 32 05 be 9e b0 9d bc ba 3e 75 bc 66 9a 74 bc
       -0.13007413 -0.019249257 -0.014968568 -0.01492939
000260 4e e2 8b bd 21 fb 91 3d f8 3f ed 3d 8a d1 50 3d
       -0.068302736 0.07127977 0.11584467 0.050981082
000270 00 7b 67 3b b3 4f ae 3d fe 7a 0e 3b a1 c6 8e 3d
       0.0035321116 0.08511295 0.002174079 0.06971479
000280 da 87 b1 3c 3e 7d 82 3c eb d3 2a 3e 3c 1b af bd
       0.021671224 0.01592886 0.16682403 -0.085501164
000290 78 4b e7 3c b9 30 f8 bc 1a 5a 15 be 7c 18 7e be
       0.028234228 -0.03029667 -0.14585152 -0.24814028
0002a0 01 2b e2 3c c0 67 e7 bd df de 96 3e c1 52 47 be
       0.027608396 -0.112990856 0.29466912 -0.19465162
0002b0 8c 76 4e 3e 78 91 20 3e a6 ee 57 be ed 72 69 3e
       0.2016241 0.15680492 -0.21087131 0.22797747
0002c0 5f 8d 48 3d 9f e4 64 3e d1 01 7b 3e 86 da 8d 3e
       0.048962947 0.22352837 0.24512412 0.27705783
0002d0 c5 47 0a bd ad bb 72 3e e2 4e 66 be 1d 51 af 3d
       -0.03375985 0.23704405 -0.22491029 0.08560393
0002e0 52 10 64 3e e9 3c a3 3e 9e e6 60 3d 33 48 36 3e
       0.2227185 0.31882408 0.054907434 0.1780098
0002f0 cd 20 53 3e 69 0d 92 3e 28 84 0d 3d 6a b7 ef 3d
       0.20617981 0.28525856 0.034549862 0.11704905
000300 50 c9 26 3e c9 e9 08 bd ac ed 28 3d f5 94 bd bd
       0.16287732 -0.03342608 0.041242287 -0.09256927
000310 e7 41 33 3e 35 e9 56 be 75 23 30 be d1 62 94 be
       0.17505608 -0.20987399 -0.17201026 -0.2898164
000320 83 ca 43 3e df 72 c2 bd 70 57 44 3e bc a0 2a be
       0.19120221 -0.09494566 0.1917398 -0.16662878
000330 6f 11 40 3e f9 63 03 3e 77 77 d4 bd d7 cf 1f 3e
       0.1875665 0.12831105 -0.103743486 0.15606628
000340 24 0f 42 bc 69 c9 8b 3e b9 14 54 3d cb 43 d6 3d
       -0.01184443 0.273021 0.051777575 0.10462149
000350 c5 87 e8 3d b7 0d 24 3e 8b b9 c6 bd fc 1f 55 3d
       0.11354021 0.16020857 -0.09703358 0.052032456
000360 67 c5 10 bd dc 76 37 3e ee 59 04 3d c8 69 6e 3e
       -0.035344508 0.17916435 0.032312326 0.2328254
000370 90 ee cc 3d 2a 09 4b 3e d8 81 58 3d 1d 4d 60 3e
       0.1000644 0.19827715 0.052858204 0.21904416
000380 e3 80 93 3d e1 47 79 bd b3 b0 bd bc 11 46 13 3e
       0.072023176 -0.060859565 -0.023155546 0.14382197
000390 8f 4b 9e 3d de 34 88 3d 32 00 07 3e b7 d5 47 3d
       0.077292554 0.066507086 0.13183668 0.0487878
0003a0 f4 f1 43 bd e5 3d 2e 3d ab bb 40 be 69 77 ae 3d
       -0.047838166 0.042539496 -0.1882159 0.085188694
0003b0 d2 42 c8 3a 94 55 0d be 9b 63 e5 3d 2b e1 af ba
       0.0015278703 -0.13802177 0.11200639 -0.0013418546
0003c0 df f9 27 bd 63 c7 1c be 9c 30 00 be 1a 9a 01 be
       -0.04100978 -0.15310435 -0.12518543 -0.12656441
0003d0 36 b6 0c 3d d2 1c bd bd 96 28 bf 3d 8b 30 2c bd
       0.034353457 -0.09234013 0.09333913 -0.04203848
0003e0 76 7d b8 bd 3b 59 c8 bc 1f 77 60 3c 4a 55 76 bd
       -0.09008305 -0.02445661 0.013700276 -0.06013993
0003f0 81 1a a1 bd c3 e1 ae 3c 06 93 71 3d 08 e9 90 bc
       -0.07866383 0.021347886 0.058978103 -0.017689243

encoder.enc_layers.0.attention.query_projection.bias f4 [32]
000000 c5 6c 32 3e 0a 4f 2f 3e 2e 2f 40 3d 01 88 bc 3c
       0.17424305 0.17119995 0.046919994 0.02301407
000010 60 d5 07 3e 95 5d 1b 3e 11 ea 64 3e 62 c2 2a be
       0.1326499 0.15172417 0.22354914 -0.16675714
000020 3c 40 2f 3e 87 72 d5 3d e9 4a 07 3e 55 32 f6 bc
       0.17114347 0.10422235 0.1321217 -0.030053297
000030 07 10 b4 3c 19 a4 55 3e b0 ef be 3e 2d d6 30 3e
       0.021980299 0.2086338 0.37292242 0.17269202
000040 26 45 a3 bd c1 47 c8 3e b4 85 3f be d7 24 79 bd
       -0.079721734 0.39117244 -0.18703347 -0.06082615
000050 97 28 79 bc 1f a1 82 3d d5 21 7c 3d 07 e0 c4 bd
       -0.015207431 0.06378388 0.061555702 -0.09613042
000060 60 74 52 be c5 ec a5 3d ed a3 32 3e 79 19 8f bc
       -0.20552206 0.08101801 0.17445345 -0.017468201
000070 79 15 25 3d 4f 72 55 3e fa 0c 52 be 70 4a 60 be
       0.04030368 0.20844387 -0.20512763 -0.21903396

encoder.enc_layers.0.attention.key_projection.weight f4 [32, 32]
000000 17 60 ea bc 7c 5b 6b bd 5c ff 24 be 93 52 8d be
       -0.028610272 -0.057460293 -0.16113037 -0.27602062
000010 99 47 00 3d 9c 35 ce bd 1c a6 e3 3c 6f 56 12 3e
       0.03131828 -0.10068819 0.027789168 0.14290784
000020 4c 92 60 bc 14 2b 76 3b b1 95 54 bc ad 60 52 bd
       -0.013706755 0.0037562298 -0.012975142 -0.05136173
000030 75 40 93 bd b1 c1 90 3d 08 2c ba bd 13 b9 03 bc
       -0.071900286 0.07068194 -0.090904295 -0.008039731
000040 52 2b 0c 3e f1 0c ac 3d de 96 f3 3d 85 bc 7d 3d
       0.136884 0.08400906 0.1189401 0.061947364
000050 3c 63 ed 3d fa f3 7a 3d c5 51 ae 3c 8d 87 66 3d
       0.11591193 0.06126783 0.021279225 0.056281615
000060 90 00 34 3d 73 26 49 3d 01 94 c6 bd d5 c3 01 3e
       0.04394585 0.049108934 -0.09696198 0.1267236
000070 29 73 90 bd 7d 48 4b 3d 4b 61 9e 3d 07 3d be bd
       -0.07053215 0.049629677 0.07733401 -0.09288984
000080 df db f4 bd b5 b1 c9 bc ba 06 c1 bd f6 cf e9 bd
       -0.119559996 -0.02462087 -0.09425111 -0.114166185
000090 2e fe b3 3c 94 0c 8b be 99 04 2c 3c ad c3 e6 3d
       0.021971788 -0.27158034 0.010499143 0.11267791
0000a0 c6 36 cf 3d cd 51 3e be 1f 0c 8b bd e5 8e 66 bc
       0.10117869 -0.18585892 -0.06789421 -0.014072155
0000b0 d0 cb e1 3b 59 78 8e 3d 6c 37 aa 3d 5b ae 55 bd
       0.0068907514 0.06956548 0.08311352 -0.05216823
0000c0 38 56 cd bd 90 14 44 bd 2e 44 c4 bd f9 0b de bb
       -0.100262105 -0.047871172 -0.09583317 -0.0067763296
0000d0 aa 03 3f bc 5f c7 b9 bc d9 0c a8 bd 8e ae ce bd
       -0.011658588 -0.022678075 -0.082055755 -0.100918874
0000e0 27 b1 ab 3d c1 1c 91 3d 03 f9 a5 3d 3c 6f 61 3d
       0.083833985 0.070855625 0.08104136 0.055037722
0000f0 d3 7a bd 3c 85 0a e3 bd 8d 9b 68 3d f0 b2 e0 bb
       0.023129856 -0.11085991 0.05678897 -0.0068572685
000100 19 6c 51 bd a7 2c ea 3d 8f 89 71 3d aa a6 77 3e
       -0.05112848 0.11434298 0.058969077 0.24184671
000110 61 2f 68 3d 30 1f e6 3d f4 bb 42 3d 6a a1 f2 bc
       0.05668581 0.11236417 0.047542527 -0.029617984
000120 be f9 92 3d f4 75 b6 3d 04 47 3e bd 57 f7 5a 3d
       0.07176541 0.089092165 -0.046454445 0.053458538
000130 b4 57 d1 3d ec ba e8 b9 7d 4f 20 bd 86 4d a9 bb
       0.10221806 -0.00044389756 -0.039138306 -0.005166712
000140 93 a3 6d 3d 0b 85 c0 3d a7 19 bf bd 85 29 d5 bc
       0.058017325 0.09400376 -0.09331065 -0.026020775
000150 f2 48 0a 3e a5 f8 8c 3d 46 d2 37 bd 8b 06 fd bc
       0.13504389 0.06883363 -0.044878267 -0.030886909
000160 24 f9 a2 3d 43 6c 24 3d fc 6b b6 38 7f 91 3d 3d
       0.07957676 0.04014231 8.69855e-05 0.046281334
000170 54 d6 7b 3d 68 cf ae 3d 38 4f ab 3c 6e 54 bd bd
       0.061483696 0.08535653 0.020911798 -0.09244619
000180 ce a9 62 bd 65 6e 2d 3d 0c 54 15 3e 19 4c fd 3d
       -0.05533772 0.04234161 0.14582843 0.1236803
000190 b5 0c bb 3d d7 c8 1b 3e 47 c0 6a bd 08 97 58 be
       0.09133283 0.15213333 -0.057312276 -0.21151364
0001a0 c0 d8 01 3e 2e 94 21 3e 6d 09 81 3d 8e b5 8f 3d
       0.1268034 0.15779182 0.06300626 0.07017051
0001b0 81 96 a3 bd a0 47 69 bd f7 cb 80 bc ce e2 d4 bd
       -0.07987691 -0.056953073 -0.015722258 -0.10394822
0001c0 f0 0a 81 bd cb 17 82 3d 31 39 96 3c 93 e2 1d 3c
       -0.06300914 0.063521944 0.018337818 0.009636539
0001d0 10 60 e2 bd e6 fb e3 bd 6c 3f 0d bd c5 b7 0b 3d
       -0.11053479 -0.1113203 -0.034484312 0.034110803
0001e0 64 b6 53 bd b7 ba 69 bd b6 46 00 3c 01 b4 84 3d
       -0.051687613 -0.05706283 0.007829359 0.064796455
0001f0 ce 6c 40 3d 20 5c aa 3d 3f 12 9b 3d e7 1f 8a bb
       0.046978764 0.08318353 0.075718395 -0.004215229
000200 53 a1 a3 3d ea 9d ab bb 85 d3 49 bd 6a 55 04 be
       0.079897545 -0.0052373307 -0.049273986 -0.12923208
000210 e1 45 5b 3c a0 ff 93 be a4 e5 fc bd 6d 36 05 3e
       0.01338336 -0.28905964 -0.12348488 0.13009043
000220 cd 2c 0e 3d 71 e1 29 be c0 f5 d6 3c 19 4d e0 bc
       0.034710694 -0.16589905 0.02624023 -0.027380513
000230 d0 44 da 3d 40 a0 f8 3d a9 8e d7 bd 39 8d 1f bd
       0.10657656 0.1213994 -0.10525257 -0.03895304
000240 6d b2 9d 3d e2 0e 8e 3d c6 42 cb bc 04 27 cf bc
       0.07700048 0.069364324 -0.024812113 -0.025287159
000250 6e 31 e6 ba 95 95 4f bd 09 54 65 3c 60 b0 0d 3d
       -0.0017562339 -0.050679762 0.013997086 0.034592032
000260 3e 5e 0d bd b7 6e 09 be 50 54 8b bd 7e 54 8b bd
       -0.034513704 -0.1342114 -0.06803191 -0.06803225
000270 38 45 70 bd 3f 36 ab 3d 4c 4c b0 bb a9 1f d9 bb
       -0.058659762 0.08359956 -0.005380189 -0.0066260886
000280 76 83 b7 bd 2d 5c 74 bd 44 90 cc bc 5a 93 82 be
       -0.08960621 -0.05965822 -0.024971135 -0.25503045
000290 ca 20 8b bd ca ce ce be 9b a7 6a bd ae 15 88 3d
       -0.067933634 -0.40392143 -0.057288747 0.0664476
0002a0 23 cc 0f be 2f a4 32 be 71 a7 9f 3c 40 bc dc 3c
       -0.14042716 -0.17445444 0.019489022 0.026945233
0002b0 13 f6 96 bd 60 9d be 3d 41 5c 32 3d 83 e2 55 3d
       -0.07371154 0.09307361 0.04354501 0.05221797
0002c0 f8 4e 29 3c a3 b7 75 3d 2d d2 13 3d 68 04 e8 bd
       0.010333769 0.059989583 0.03608911 -0.113289654
0002d0 eb 8f f8 bc 54 7f 5d 3d 1d 3f d7 bd 1e 92 0b bc
       -0.030342063 0.054076508 -0.10510085 -0.008518724
0002e0 a1 ed c1 bd 57 20 5f bd 73 d5 aa bc fb 73 69 3d
       -0.09469152 -0.0544742 -0.020853734 0.056995373
0002f0 d8 7c 2e bd 2f 9e 42 3d 5a 52 68 bd 38 b3 62 3d
       -0.04259953 0.047514137 -0.05671916 0.055346698
000300 bd 13 cb bc ab e6 17 be 53 a5 3c be 0f 9a d3 be
       -0.024789685 -0.14834087 -0.18422441 -0.41328475
000310 1c a2 e2 bd 02 81 9e be fd e6 02 3d d4 f2 dc 3d
       -0.11066076 -0.309578 0.03195857 0.10788503
000320 cb 5f ab bd 42 5f b8 bd c5 57 5a bd 18 f2 e5 3c
       -0.083678804 -0.09002544 -0.05330636 0.02806954
000330 69 c0 99 3d 21 a1 85 bd 88 68 11 3e 83 8a 2d 3c
       0.075074024 -0.065248735 0.14200032 0.010592106
000340 1d c8 b4 3c da 25 0d 3a f3 bb ab bd 4f 1d de bc
       0.022068078 0.00053843635 -0.08385458 -0.027113585
000350 5e 79 ac 3c 45 c0 a8 bd 16 57 0a 3d 81 10 c6 bd
       0.021053966 -0.082397975 0.033774458 -0.096711166
000360 1a 97 81 3d e0 c2 0b 3d e6 ad de bd 68 3e 18 bd
       0.063276485 0.034121394 -0.10873012 -0.03716889
000370 13 52 b4 3d d8 cc 7d 3d d6 65 32 be 3b b0 08 3a
       0.08804717 0.061962932 -0.1742166 0.00052142487
000380 6c 73 86 3d 17 5f cf 3d 37 a2 a9 3d 9f 8c 78 3e
       0.06564984 0.10125559 0.08282893 0.24272393
000390 ec 44 39 3d 97 41 3b 3e a6 1a f6 bb 93 d1 2b 3d
       0.045231745 0.1828674 -0.007510501 0.041947912
0003a0 86 99 63 3d 92 2d 2d 3d 06 49 ab 3d 00 64 fb 3d
       0.055566333 0.042279787 0.083635375 0.12274933
0003b0 9d 94 6f bd d6 3b 48 bd 1c e7 c3 bc 6a a6 21 3d
       -0.058491338 -0.04888519 -0.023913912 0.039465345
0003c0 5b 3f e5 bc cc 47 c7 3c 05 48 a6 bd 88 0d e3 3c
       -0.027984312 0.024326228 -0.081192054 0.027716413
0003d0 f9 70 e4 bc 40 0b 59 bd f7 13 63 bc 81 fd 5b bd
       -0.0278859 -0.052989244 -0.01385974 -0.053708557
0003e0 4f 5f 25 bd 49 6a 82 bd 46 53 b8 bd c3 07 93 3d
       -0.040374096 -0.063679285 -0.09000258 0.07179215
0003f0 93 85 ff bc 52 6e 86 bd dc 75 13 3e 4f d3 cd 3d
       -0.031191623 -0.06564011 0.14400429 0.100500695

encoder.enc_layers.0.attention.key_projection.bias f4 [32]
000000 54 78 b7 bc f8 20 b2 3d ff 8f 65 bd 34 fc 6f be
       -0.022396244 0.086976945 -0.05604553 -0.23436052
000010 5d 2f 0c 3e d5 08 a4 3d b1 af e5 bd 6f 98 59 bd
       0.13689943 0.08009497 -0.11215151 -0.053123888
000020 d0 71 05 be 90 28 2c be ec a7 25 3d 0f 0d 3b bc
       -0.13031697 -0.16812348 0.040443346 -0.011416688
000030 58 dc 3f 3d e3 14 2a bc 31 33 56 be 82 35 d0 3d
       0.046840996 -0.010380956 -0.20917965 0.10166456
000040 c3 40 02 bd a4 c8 d5 3d 8a 94 39 be 45 84 14 be
       -0.031800043 0.1043866 -0.1812307 -0.14503582
000050 0e 8a 99 3d a8 9b 4d 3c 35 fb 5d bd f6 d0 6a be
       0.07497035 0.012549318 -0.054194648 -0.22931275
000060 20 5c a2 bd 66 ca 1a bd e4 a4 1c 3d b4 d6 c7 3e
       -0.07927728 -0.03779068 0.03824319 0.39030993
000070 46 28 a6 3c 52 49 35 3e b2 49 66 bd a4 4c 89 be
       0.020282876 0.1770375 -0.056222625 -0.26816285

encoder.enc_layers.0.attention.value_projection.weight f4 [32, 32]
000000 04 12 36 3e 88 ad de 3d 68 e6 79 be 07 15 12 3e
       0.1778031 0.10872942 -0.244043 0.14265834
000010 01 29 03 bd cb 02 3f 3d a5 4f 9b 3b f7 94 a3 3d
       -0.032021526 0.046633523 0.004739719 0.07987397
000020 0f ef 54 3d be bd 0a be 40 63 8c be f2 66 8c 3e
       0.051985797 -0.13548943 -0.27419472 0.2742229
000030 ef 24 6b be d0 f9 ea bd 47 78 b8 3c f5 b1 35 3d
       -0.22963308 -0.11473429 0.02251829 0.044359166
000040 c3 dd 54 be a7 5c bc 3c 2d d8 50 3c dd 64 67 3d
       -0.2078772 0.022993399 0.012746853 0.056492675
000050 99 c9 61 3e e6 8e f1 3d f6 b3 6e 3d 5f 00 0a 3e
       0.2204956 0.11794834 0.058277093 0.13476704
000060 8b 86 29 be 92 90 bc 3d b2 b7 bb 3e 90 32 db 3c
       -0.1655523 0.09207262 0.36663586 0.026757509
000070 85 89 ae bd de b5 27 3d 0b 55 44 bc 92 10 0f 3d
       -0.085223235 0.040944926 -0.011983166 0.034927912
000080 0f ff e6 3c ea 0e 1d 3d 73 63 b8 bb 14 a5 74 3c
       0.028197793 0.0383443 -0.0056270896 0.014931936
000090 f0 d8 d6 3d cc fe 96 bd f6 a5 9d 3c f6 38 b7 bd
       0.10490596 -0.073728174 0.019244175 -0.08946411
0000a0 32 b7 97 3d 5b d5 59 3c 1f 01 8b bd f4 4d 59 3d
       0.074079886 0.013295497 -0.06787323 0.053052858
0000b0 a1 10 03 bd da 5d 88 3d 56 7b a3 bd 18 fd db bd
       -0.03199828 0.06658526 -0.07982509 -0.10741633
0000c0 2c f7 cc bc 19 ed ba 3c 06 59 42 ba d3 0f d9 bd
       -0.025020204 0.022818135 -0.0007413778 -0.10598721
0000d0 23 64 f5 bd 1e 20 87 bd 9e 6d ae bd 23 c6 74 3d
       -0.1198199 -0.06597923 -0.085170016 0.05975927
0000e0 37 18 ca 3d 4c b1 31 bc c2 73 42 3d 0a 6b 8c 3d
       0.098679 -0.0108454935 0.047473677 0.068563536
0000f0 d5 7d ab 3c c5 c2 ef 3d 87 ae 29 bd 4d a6 86 bd
       0.020934025 0.11707071 -0.041426208 -0.06574688
000100 ac 42 18 be 4f 7f af 3b 1b 86 ed 3d ba 62 31 be
       -0.14869183 0.0053557525 0.11597844 -0.17322817
000110 54 ed 6b bd c0 d6 00 be 58 e2 9c bd 20 f9 21 be
       -0.05759938 -0.1258192 -0.07660359 -0.1581769
000120 5f 15 9e bd 9d 87 a2 bd 72 b4 5e 3e a7 f5 b5 be
       -0.0771892 -0.079360224 0.21748522 -0.3553898
000130 e0 10 40 3e 0f bb 70 3e d1 d7 80 be 25 9e 04 3e
       0.18756437 0.23508857 -0.25164655 0.12950952
000140 43 df 88 3d 5e a6 26 bd f8 21 81 3d 02 e4 fc 3d
       0.06683209 -0.040686004 0.06305307 0.123481765
000150 11 6d b5 be f2 c9 4c 3e 3b 1b c3 be 7f 41 aa bd
       -0.35434774 0.19998911 -0.38106713 -0.08313274
000160 2c e6 8d 3e be 03 15 3d 8b 7b 14 be f4 b6 ba bc
       0.2771467 0.036380522 -0.14500253 -0.022792317
000170 9f 5b 42 3e 6b 07 1f 3e 13 2c e6 3d 2f a7 82 bb
       0.18980263 0.15530173 0.11238875 -0.003987215
000180 18 30 29 bd 87 7e 9a 3e 28 9e d6 3d 51 1d 38 be
       -0.04130563 0.30174658 0.10479385 -0.17979933
000190 e6 eb 24 be 70 62 58 3c 29 32 09 bc d6 d9 cb bc
       -0.16105613 0.013207063 -0.0083737755 -0.024884146
0001a0 e4 04 9e bd 5d 83 12 3e b7 0a f5 bb c2 d2 17 be
       -0.077157766 0.14307924 -0.007478084 -0.14826491
0001b0 9a 88 2b 3c 2f b6 1b bd 57 2a 9f be 4b b5 19 3e
       0.01046958 -0.03801554 -0.3108699 0.15010564
0001c0 67 96 c1 bd c8 2a 30 3d 9c ca 46 be 34 98 b5 3d
       -0.09452515 0.04300955 -0.19413227 0.08866921
0001d0 c4 c6 ba be 18 21 63 3e 72 a8 2f be b4 71 be bd
       -0.3647977 0.22180593 -0.171541 -0.09299031
0001e0 c7 1f 95 3e 80 f0 22 3d 2e 67 39 3d 58 73 97 3c
       0.29125807 0.03978014 0.045264415 0.018487617
0001f0 b0 17 40 bd 3a e0 0e 3d a9 d9 b8 bd 6a e2 62 be
       -0.04689759 0.034881808 -0.090258904 -0.22156683
000200 71 50 e2 bd 3d 19 c8 3a 04 4a 90 3d 33 19 ee bc
       -0.11050499 0.0015266311 0.07045367 -0.02906475
000210 ae db 7a 3d 10 86 78 3d 82 37 74 bc dd 5a f5 3c
       0.06124466 0.060674727 -0.014905812 0.029950554
000220 eb ff f8 bd 84 32 bb 3d 5b 4e 50 3b fc 21 22 3d
       -0.121581875 0.091404945 0.0031784985 0.03958319
000230 2d 56 65 bd 7e d0 23 3e 58 2d 5f bd 91 64 7b 3c
       -0.055990387 0.15997502 -0.054486603 0.015343801
000240 4f 74 b5 3c d3 2e b2 3c 12 42 ca 3a 48 a9 e7 3c
       0.022150187 0.021750843 0.0015431067 0.028278962
000250 79 a3 eb bd 28 89 1b bd 5c a7 a7 3d 53 17 fd 3d
       -0.11505789 -0.0379726 0.08186218 0.12357964
000260 ab 93 a0 bb 0c ff 88 bd 82 23 5d 3d aa d0 ba bd
       -0.004900416 -0.06689271 0.05398894 -0.09121831
000270 22 bc 14 3e 03 f7 54 bd d7 f7 37 3c 23 58 37 3d
       0.14524892 -0.05199338 0.011228523 0.044761788
000280 8a 3d 0d 3d 23 d9 1f 3d c7 6e be be cf cb 6c 3b
       0.034482516 0.039025437 -0.3719389 0.0036132222
000290 0f e6 69 bd fa 1b 1d be 0c 04 05 bd d8 64 9b 3d
       -0.057104167 -0.15342703 -0.032474563 0.07587594
0002a0 b6 91 3c be ac 55 ea 3d 65 50 87 be 40 58 fb 3d
       -0.1841496 0.11442122 -0.26428524 0.12272692
0002b0 47 84 15 be 1a ca 85 be 5d 73 97 be 69 02 d3 3d
       -0.14601241 -0.26130754 -0.29580203 0.10303194
0002c0 15 f9 b3 be bd 6a db 3d 41 f2 c2 bd 80 94 0a 3e
       -0.35150972 0.10713718 -0.095188625 0.13533211
0002d0 c2 21 13 3e bd 6d 2e 3e ad 9d bd bd 16 da d4 3d
       0.14368346 0.1703405 -0.0925859 0.10393159
0002e0 59 c6 87 be f1 8d 6b bb 16 7b cd 3e 14 c5 0b be
       -0.26518515 -0.0035942758 0.4013297 -0.13649398
0002f0 4b d8 81 3e 4e 95 87 3c 20 45 f4 3d 00 b1 1c be
       0.2536033 0.016550686 0.11927247 -0.15301895
000300 ec b6 da bc ef 9d 87 be e7 ad f7 3d cc 47 73 be
       -0.026698552 -0.2648768 0.12093716 -0.23757857
000310 17 d4 1d 3d c5 8e a0 3d 07 2c e8 3c 36 9d 20 3e
       0.038532343 0.07839731 0.028341306 0.15684971
000320 8c 77 07 3e 4c 6a 7b bb 80 33 61 3e 2a 58 41 3e
       0.13229197 -0.0038362918 0.21992302 0.18881288
000330 6e c3 95 bb e1 4a c2 3d 9b 4e a1 3e 1c 66 e7 bd
       -0.004570416 0.09486938 0.31505284 -0.11298773
000340 45 a0 81 3e 7d 79 9d 3c 26 2e f6 bd 1e c0 97 bd
       0.25317588 0.01922297 -0.12020521 -0.0740969
000350 f1 bc f4 b9 da 36 57 bd 5a e7 02 3e 0b 52 b2 3d
       -0.0004668008 -0.052542545 0.12783566 0.08707055
000360 4a f5 33 3e bf f0 04 3e 96 b8 6c 3c b8 a1 1b 3e
       0.17574039 0.12982462 0.014448306 0.1519841
000370 69 53 80 be 7c 40 34 bd 60 e7 22 be 7c 2e 19 bd
       -0.25063637 -0.04400681 -0.15908575 -0.037397847
000380 86 83 83 3e 81 6f 42 3e 0b 74 db bd fa a0 23 bd
       0.25686282 0.18987848 -0.10715493 -0.03994844
000390 ec eb bd bd 64 4b 99 3b 88 11 e1 3d 8a 1a 11 3e
       -0.09273514 0.0046781767 0.10989672 0.1417028
0003a0 c3 ad 87 bd 66 72 a2 bc ae 9e 9b bd b6 84 54 3e
       -0.06624939 -0.01982994 -0.07598625 0.2075375
0003b0 24 fb c1 be 09 49 bc be f3 82 74 be cf 6b 19 3c
       -0.37886918 -0.3677447 -0.23878078 0.0093640825
0003c0 88 2a 28 be 1c 0e 02 3e 14 19 b1 bd 81 54 1d 3c
       -0.16422474 0.12700695 -0.086473614 0.009602667
0003d0 ef 47 62 3d 37 67 79 bc 73 dc 92 3d bc 74 05 3e
       0.055244382 -0.015222362 0.071709536 0.13032812
0003e0 0c 5d 10 be ed 61 18 bd 1d 72 ba 3e 01 59 af bd
       -0.14097995 -0.037202764 0.36415187 -0.08561898
0003f0 76 62 06 bd da 67 3e be 0f f6 62 3c da 7f 1b be
       -0.032808743 -0.18594304 0.01385261 -0.1518549

encoder.enc_layers.0.attention.value_projection.bias f4 [32]
000000 6e 49 27 3d 24 3a dc 3d ee 44 35 3e bb 47 0d 3d
       0.040841512 0.10753277 0.17702076 0.034492236
000010 6a 23 10 bc b0 5e 24 bd 3d 68 07 be 2c 4d de 3c
       -0.008797506 -0.040129364 -0.13223357 0.027136408
000020 a4 72 f7 bd 5f 6d 4d be 80 81 2e bd 87 83 a8 3d
       -0.12082413 -0.20061253 -0.04260397 0.08228212
000030 26 2f 6a bd 91 38 51 bd a3 14 14 bd f5 3d f3 bd
       -0.05717387 -0.051079337 -0.036152493 -0.11877052
000040 a8 69 91 3d 7e 54 b1 bb 3b e9 a8 bd a0 19 cd bd
       0.071002305 -0.0054116836 -0.0824761 -0.10014653
000050 44 6e 29 bd 25 62 31 3d 44 22 24 3e 3c 3f 67 bd
       -0.041364923 0.04330649 0.16028696 -0.05645679
000060 f4 9e d6 bd 10 c2 2c bc 0c 08 91 3d 23 ec df bd
       -0.10479537 -0.010544315 0.07081613 -0.109337114
000070 ad 83 41 be de 65 09 3e 30 74 11 3c e0 b8 93 3c
       -0.18897887 0.13417765 0.008877799 0.018032491

encoder.enc_layers.0.attention.out_projection.weight f4 [32, 32]
000000 8b 42 f3 bd 2d 1b d3 bb dd 0b 4b 3e 7b 57 22 3c
       -0.118779264 -0.0064424486 0.19828744 0.009908552
000010 ec a2 fe 3c 61 a3 23 bd e5 46 38 bd ba c7 39 be
       0.031083547 -0.039950732 -0.044989485 -0.18142596
000020 79 db 2a 3d 48 b3 b6 bd 54 22 cb bd b4 a8 c1 bd
       0.04171321 -0.08920914 -0.09918657 -0.09456006
000030 13 8a a4 3d 19 69 1a bd 8a bb 3c 3c 19 9e 98 bd
       0.08034148 -0.037697885 0.011519322 -0.0745203
000040 7f 4d 2c be fe d0 39 3d 29 c8 f9 bd 56 12 11 bd
       -0.16826437 0.045365326 -0.12196381 -0.035417877
000050 cb 83 98 bc 52 e2 37 bc f9 41 2a 3d 2a 5d 79 bd
       -0.018617531 -0.011223393 0.041566823 -0.060879864
000060 73 84 89 bc df 7e 6b bc ba 7e 18 3d d1 99 04 3e
       -0.01678679 -0.01437351 0.03723023 0.12949301
000070 4c 9e e7 bd fb ef 65 3d f0 70 88 3d d4 15 43 be
       -0.113094896 0.056137066 0.06662166 -0.19051296
000080 1d b5 b1 bd ee 94 72 3d c5 0e 12 be 08 61 05 be
       -0.08677123 0.05922406 -0.14263447 -0.13025296
000090 a9 17 15 bc 5b cc 32 be 47 87 3b bc 25 a1 36 bd
       -0.009099879 -0.17460768 -0.011445827 -0.044587273
0000a0 9e d3 3c 3e 6d ed a5 3e 55 8b 59 be 26 0b 8b 3c
       0.184401 0.32407704 -0.21244557 0.01697309
0000b0 3b ed 1b bc 25 b9 d3 bd 3b 8c 61 bc ee 47 09 bc
       -0.009517009 -0.10338048 -0.013766344 -0.008378966
0000c0 5b 2f a1 3d a5 95 27 3e 31 23 a4 bc 52 fa 2e 3e
       0.078703605 0.16365679 -0.020036312 0.17087677
0000d0 10 32 13 be d4 a1 92 3d 38 44 1b be 75 0b d3 bd
       -0.14374566 0.071597725 -0.15162742 -0.1030492
0000e0 98 38 5b 3c 06 94 96 bc 68 1f c6 3d 37 28 db bd
       0.013380192 -0.01838113 0.09673959 -0.1070103
0000f0 01 a9 59 3e b3 37 fa bc c0 86 fd bc 58 d4 aa 3d
       0.21255876 -0.030544138 -0.030948043 0.083412826
000100 04 20 98 3c 81 9a 89 bc c7 af a3 3d d5 a7 de bd
       0.018569954 -0.016797306 0.07992511 -0.10871855
000110 0a fb c6 bc 82 62 79 bd 33 27 3b bd c3 3f 81 3d
       -0.024289627 -0.06088496 -0.04569168 0.0631099
000120 e8 26 0a 3e 0c cf 66 3d 18 89 31 be 29 dd 6e 3d
       0.13491404 0.0563498 -0.17337453 0.058316384
000130 fc e8 68 bd 13 6c 4a 3d 11 39 1e be 2d 9c bf bd
       -0.056862816 0.049419474 -0.15451457 -0.0935596
000140 1d 3c 23 bd ee 75 62 3d 0d 93 c5 3b 2f eb df bc
       -0.03985225 0.055288248 0.0060294927 -0.027333824
000150 5a a2 d1 3d 23 43 7c 3d 80 49 51 bd ad 61 b6 bd
       0.10236044 0.061587464 -0.051095486 -0.08905349
000160 dc 1a 01 bd 1f 04 81 bd c5 a5 d9 3a ca 8c 74 3c
       -0.031519756 -0.06299614 0.0016605189 0.014926145
000170 1c b9 89 bc cf 1a cb 3c 89 58 9e bd c4 ab 67 bd
       -0.0168119 0.024793057 -0.077317305 -0.056560293
000180 c1 ed 1c bd 29 36 80 3d be 1f f7 3d 10 dd cc bd
       -0.038312677 0.0626033 0.12066601 -0.10003102
000190 82 f7 48 bd d5 07 bd 3d 9a 52 1c be ae 5f 61 be
       -0.049064167 0.092300095 -0.15265885 -0.22009155
0001a0 0f a9 2f be 99 f0 16 3e 89 1a a0 be d8 4c 19 bd
       -0.17154334 0.14740218 -0.31270245 -0.0374268
0001b0 0f b5 29 3e 0e 7c 3c 3d 5d 75 f9 bd ab 28 02 be
       0.16572975 0.046016745 -0.121805884 -0.12710826
0001c0 20 83 21 3e b8 9e dc b9 ee 1a 89 be e5 d3 83 ba
       0.15772676 -0.00042079925 -0.26778358 -0.0010057656
0001d0 a2 30 59 3d 4f 84 86 3e 7d 9a 67 be 76 f5 0d 3d
       0.053024895 0.26272818 -0.22617526 0.034657918
0001e0 cc 76 78 be af 76 36 be 1f 81 13 3d 1a 3a c3 bc
       -0.24264067 -0.17818712 0.03601181 -0.023831416
0001f0 07 3e 16 3e c9 15 10 3e 1e 8e af be a8 f8 0b be
       0.14672099 0.1407081 -0.34288114 -0.13669074
000200 93 4f 0f be 5c cd c1 bc d1 1e 11 bc cd df d1 3d
       -0.13995199 -0.023657493 -0.008857445 0.10247765
000210 93 f9 76 bc 9e 6f a4 bd 8a 39 55 be dc 4e b9 3d
       -0.015074152 -0.08029102 -0.2082273 0.09048244
000220 01 89 aa 3e 97 2a ef 3d 82 a7 d3 be 49 6e d1 3d
       0.3330765 0.11678045 -0.41338736 0.10226113
000230 a0 59 ac 3a c9 f4 87 be 01 a3 8a 3c 50 4f d6 bd
       0.0013149269 -0.26553944 0.01692343 -0.104643464
000240 68 4b da 3d a2 35 e9 3d 10 a1 c3 bd 47 cc 35 3e
       0.10658914 0.11387183 -0.095522046 0.17753707
000250 ca 54 4f 3d be 32 8a 3d 38 04 34 be 07 0a 34 bd
       0.05061797 0.067479596 -0.17579734 -0.043954875
000260 33 de 15 bd 70 7a f1 3d 9f ac 88 bd 1d 0c f1 bc
       -0.03658886 0.11790931 -0.0667355 -0.029424721
000270 45 1e 08 3e 46 2f 95 be a8 97 1d be 35 9c 24 bd
       0.13292797 -0.2913763 -0.15389884 -0.040188033
000280 48 48 0d 3b c9 ac f1 3c 87 a5 8f 3d d8 5e d8 bd
       0.0021557976 0.029501336 0.07013994 -0.10564965
000290 b0 a1 a3 3d f8 d4 81 3d 90 8d 98 be 97 d5 d1 bd
       0.07989824 0.06339449 -0.29795504 -0.10245817
0002a0 5f f4 2a be 6e b5 90 3d 37 a5 91 be f1 6a 81 3d
       -0.16694783 0.07065855 -0.2844636 0.063192256
0002b0 3f 61 08 bd 95 77 d0 bc 46 44 d7 bd f2 a7 05 bd
       -0.033295866 -0.025447646 -0.10511069 -0.03263087
0002c0 73 09 49 3e 43 9f 87 3c 00 83 ae be 9f 57 2a 3d
       0.19632511 0.016555434 -0.3408432 0.04158747
0002d0 ae 27 5a bd fc 7c 63 3e 9b d7 3c be 89 be 2a 3d
       -0.053260498 0.22215647 -0.18441622 0.041685615
0002e0 32 1b 99 be 5e 93 46 bd 38 ec dc 3d bd 95 18 bc
       -0.2990356 -0.048480384 0.10787243 -0.009313044
0002f0 c7 e9 e4 3d 94 fb b8 3d c1 67 d7 be ab 85 a4 bc
       0.11177402 0.0903236 -0.42071345 -0.02008327
000300 1b 16 30 be 23 4b 6f bd 59 92 17 3e cb 1a 52 3e
       -0.17195933 -0.058421265 0.14801921 0.20518033
000310 c6 50 85 3d 4e 7a 3f be 2f cf 26 3e 18 56 63 3d
       0.06509547 -0.18699 0.16289972 0.055502027
000320 d1 7c b9 3e 0e af 0a bc 5a 9e 32 3d 06 32 28 bd
       0.3622804 -0.008464588 0.043608047 -0.04106333
000330 36 75 65 bd 35 df c8 bd 32 f9 34 3e ee 9e c6 bc
       -0.056019984 -0.09808198 0.17673185 -0.024245705
000340 2c 3f 56 be 5d 81 11 3e 9c 3c 18 3e cf 52 0a 3e
       -0.20922536 0.14209504 0.1486687 0.13508151
000350 b0 87 04 be b3 4b 88 bc 77 f1 36 3d e7 cc 3f 3d
       -0.12942386 -0.016637659 0.044663873 0.04682627
000360 87 63 25 3e 88 1f 25 3e d2 d1 af 3a 2a ef e3 3c
       0.16151248 0.1612531 0.0013413972 0.027824003
000370 86 30 2c be 76 51 64 be 9f 90 48 3e ad d0 83 3d
       -0.16815385 -0.222967 0.19586419 0.06436286
000380 6a 12 29 be 81 c7 95 3d 5e 18 3b 3e ad d7 1a 3e
       -0.1651093 0.07313443 0.18271014 0.15121336
000390 96 ae 8e bb f7 fc 29 bd bd cf 1c 3d 6a 7e 6f bd
       -0.0043543084 -0.04150101 0.038284052 -0.058470167
0003a0 56 4a 88 3e b3 4f ab bc bb 70 c6 bb ee 46 9e bc
       0.26619214 -0.020912027 -0.006055919 -0.019320931
0003b0 c0 78 d9 3d 69 f0 31 bd b7 24 a8 3d 66 d7 ab bd
       0.10618734 -0.043442164 0.08210128 -0.08390693
0003c0 12 74 66 be 5d 73 1c 3e 75 81 89 3e 1c 25 34 3e
       -0.22505215 0.15278383 0.2685658 0.17592281
0003d0 3e 50 e4 3c 79 10 a0 bb e5 cc 7b 3d e8 2c ab 3d
       0.027870294 -0.004884776 0.0614747 0.083581746
0003e0 f9 ae ac 3c 3f 3a 4a 3e 57 66 15 be 7a ef c8 bc
       0.021079527 0.19748782 -0.14589821 -0.024528254
0003f0 e9 e8 5d be c7 45 93 be 90 ed 8a 3e 1c 39 8b bd
       -0.2167088 -0.28764173 0.2713437 -0.06798002

encoder.enc_layers.0.attention.out_projection.bias f4 [32]
000000 57 b0 77 3e 32 38 5b be 99 fa d8 bc e6 fa 4b 3e
       0.24188362 -0.21408156 -0.026486682 0.19919929
000010 d1 e5 94 be ff fe b5 ba e4 92 ed bd c9 e4 7f 3d
       -0.29081586 -0.0013885199 -0.11600283 0.062474046
000020 ad 42 92 bd d7 fb fe 3c 26 c8 32 3b 72 49 13 3e
       -0.07141624 0.031125946 0.0027279942 0.14383486
000030 68 a2 3b 3d fc b9 80 3e 71 5a ac be b0 d6 c7 3e
       0.04580918 0.25141895 -0.3366275 0.3903098
000040 ed 81 b8 be 8b 5a 6a 3e 01 d5 b6 bd f5 c9 9e bd
       -0.36036626 0.22886102 -0.08927346 -0.07753364
000050 b5 bd 05 be a7 25 b4 be 1b 51 d3 3e 91 43 4c be
       -0.13060649 -0.35184976 0.41272816 -0.1994765
000060 4d e7 1f bd 65 35 a2 3e 37 9b d2 be b5 02 06 be
       -0.039038945 0.31681362 -0.41134045 -0.1308697
000070 94 1b 10 3e ff 1c 35 be bf 41 0b 3e 1f d7 ea bd
       0.1407302 -0.17686842 0.13599299 -0.11466812
