weights/OneStepFormer/MOT17/mot17_ckpt.pth.tar (torch, 452007 bytes, 205 tensors)

enc_embedding.weight f4 [32, 4]
00000000: 0666 e7be 164f fb3b 1aea c2be 6d5c ce3e
00000010: 2bb6 a0be 4fda e6be a908 efbc 841c 4a3d
00000020: 7254 963e 8601 46be b25a 5ebe fd27 983e
00000030: 6f86 5b3e 9908 a73e 276d db3c 145c cdbe
00000040: 5301 883e 2859 ce3c e522 b4be e84f 993e
00000050: 1bdb c03d 420e c73d 38cd d63e 21d8 b23e
00000060: 3c6d 82bd d66e 4d3e a4c4 943e 1b54 c83e
00000070: a4d3 c6be eca8 d73e b4a6 d63e 190d 973e
00000080: 3a84 1e3e d7b7 183e 9b67 8fbe c660 353e
00000090: cf7e 83bd 3547 883e 8b75 9d3e 1b71 d8bd
000000a0: f30a f13e 7396 c8be af1f da3d 0201 e03e
000000b0: a73a aebe aa84 c83e 5d64 d33e 8425 cf3e
000000c0: 68c7 df3e ad9e 66be 844e 8fbe c053 5cbe
000000d0: 0bd7 d53e 69d7 6bbd 2dea fe3e 0ffe 4fbe
000000e0: 00c1 903e ebe6 fa3e f60c 963e 8d6b f73e
000000f0: d638 dcbd 9e15 c2be 4f27 02bf 0cde 783e
00000100: 542e 493e 9b14 8cbd 0262 5ebe ac1a a23e
00000110: d659 b4be 6923 2cbe 58f5 fd3c 9435 e83e
00000120: 7ce0 393e bd5e 2fbe 9b0e 943e 6e52 02bf
00000130: a9bc 7e3d 6e2d 4fbd 58e4 933d f61b f13d
00000140: 0a81 a23b 1b70 d13e a8f8 2dbe 863e 4a3c
00000150: a3d9 40be 5f75 ebbe db7b 503e 760a 6abe
00000160: de65 5ebe 22d4 db3e d61c 74bd 61ae 5f3e
00000170: 5956 c9bd cf03 fb3e 036c 0ebf 5871 b83e
00000180: 12c0 793e a767 ccbe d610 a83d ce9d af3e
00000190: 0c2f a53d 3008 a6bd 8683 6ebd 39b6 5d3e
000001a0: 555b acbe 733e 703e 48b3 cfbe f1d4 6b3e
000001b0: 8e25 9a3e ed7f 96bc 09fe d53d e1b3 783e
000001c0: 2666 82be dbbc 9fbe 5417 c13e 5090 82be
000001d0: c018 d93e 4fe2 18be e6d0 ac3e 991b d8be
000001e0: 91ac 1f3e 3ef9 afbd 121f dbbe 331f b8be
000001f0: 3efe 8c3e c7cd 5b3e 0284 72bd 9ca6 37be
-0.45195025 0.00766934 -0.3806923 0.4030489 -0.31388983 -0.4508843 -0.029178934 0.0493436
0.29361302 -0.19336519 -0.21714285 0.2971801 0.21438001 0.32623747 0.026785446 -0.40109313
0.2656351 0.025188997 -0.35182872 0.29943776 0.09416791 0.09719516 0.41953444 0.34930518
-0.06368491 0.20061812 0.29056275 0.39126667 -0.38833344 0.42121065 0.4192406 0.2950218
0.15480128 0.1491388 -0.28008732 0.17712697 -0.06420671 0.26616827 0.3075374 -0.10568448
0.47078666 -0.39177284 0.106505744 0.4375077 -0.34029123 0.39163715 0.4128751 0.4045831
0.43706822 -0.22521468 -0.2798959 -0.21516323 0.41765627 -0.057578478 0.49788037 -0.2031176
0.28272247 0.490043 0.29306763 0.48324242 -0.10753028 -0.37907118 -0.5084123 0.24303454
0.19646579 -0.06839868 -0.21717075 0.31660974 -0.3522479 -0.16810383 0.031000778 0.45353377
0.1815204 -0.17125984 0.28917393 -0.5090703 0.06219164 -0.050580435 0.072212875 0.11772911
0.0049592303 0.40905842 -0.16989386 0.012344008 -0.18833022 -0.45987985 0.20359747 -0.22855553
-0.21718547 0.42935282 -0.059597813 0.21843864 -0.09830923 0.49026343 -0.5563356 0.36023974
0.24389675 -0.3992283 0.08206336 0.34300083 0.08065614 -0.081070304 -0.0582309 0.21651544
-0.3366343 0.23461322 -0.40566468 0.2303045 0.30106777 -0.018371547 0.10448844 0.24287368
-0.25468558 -0.31198773 0.3771311 -0.25500727 0.42401695 -0.1493008 0.33753127 -0.42208555
0.15593173 -0.08592461 -0.42797142 -0.35961303 0.2753772 0.21465217 -0.059207924 -0.1793465

enc_embedding.bias f4 [32]
00000000: edab 343d e8f5 e4be b3fe adbe f4d3 993e
00000010: cea3 9c3d 10ea bebe e85b 9fbd 9af4 c3be
00000020: 9dda 933d 001a aa3e 4791 d5be 2861 ffbd
00000030: f08f 99be 3dd3 b33d 2270 f2be b5c0 8ebd
00000040: 11fc 1abd 7a0e 033e c06d e23e 4112 003f
00000050: 1899 c53d e206 96be 87f9 84be edcf d2bc
00000060: 89b6 ea3c c677 713e 45a3 7a3e ae64 62be
00000070: ce49 d03e 9255 b23e 9c04 dbbe 3464 8d3e
0.044109274 -0.44718862 -0.33983383 0.3004452 0.07648431 -0.3728795 -0.077812016 -0.38272554
0.072194315 0.3322296 -0.417124 -0.12469703 -0.29992628 0.08780525 -0.47351176 -0.0697035
-0.037838046 0.12798491 0.44224358 0.50027853 0.09648341 -0.29302126 -0.25971624 -0.025733912
0.028651493 0.23580846 0.24476345 -0.22108719 0.40681309 0.3483091 -0.42776954 0.2761551

dec_embedding.weight f4 [32, 4]
00000000: 67c7 5cbd 5929 013f 3035 c7be 7338 08bf
00000010: d2e0 07be 45d3 943b 6940 b5be 449b f53e
00000020: ced4 6fbe 2bfc 9abe e75a cebe 3b2f 33be
00000030: df26 903e da64 f7bd b2bb e2bd b0c3 ca3d
00000040: ea1d 473d 693f ce3d a20a b03e a74f 14be
00000050: 6059 7bbe c18b ffbe 07cb 9ebd 604b f73e
00000060: 8c92 c4be e443 6b3e 7c14 793e 108d d43e
00000070: e9f1 e9be d101 8d3e ea98 eb3e 8204 cd3d
00000080: 9673 c8be 330f 81be 28e4 d2be 12e5 ac3e
00000090: 987d 06bf 664f 0d3e 94dd 40be d039 3abe
000000a0: 0bbb dc3e ebd7 5b3d 51db 7ebe f9aa 863e
000000b0: 0ef4 18bd 7d12 a33e 629f eb3e 4fbb 1e3e
000000c0: 8186 8f3d 0262 b73e 039b a83e 0f64 823e
000000d0: d4d9 143e 0798 933e 1dad 99bc d2ab 9cbd
000000e0: 5e22 e33d d696 04be 5d69 823e 2bff 23be
000000f0: 60c8 f5bd e2c8 853e e412 943e 0b20 05bf
00000100: 052f 01be 55ed 05bf 5a0b cfbd a4c8 34be
00000110: 54f6 053f 3d51 b7be f380 b73e bfa1 183e
00000120: 6a89 47be 7a4a ee3b 1010 2fbe f854 bd3e
00000130: 9490 873e f036 abbe c129 c33e c3f4 dbbd
00000140: fc2c eb3e da61 c33d 5a0b e7be 4508 913e
00000150: 26f7 7f3d 7ac5 f53e dd7c 45be 6992 f5be
00000160: de79 39be 034c 7c3e 7b07 843e 6bc4 77be
00000170: 176b 8d3e 65bb e9be 7924 a93e 0eda 283e
00000180: 8fa3 9d3d f256 793d aeb5 24be a14e ac3e
00000190: 6d0c 7f3e 6c27 173e ecdd 8e3b 7b6b 983e
000001a0: abaa c33e 2fef bdbe 79bd 89be 8dda e93e
000001b0: c4b8 c93d 98c7 90be 2083 943e b399 a13e
000001c0: a9f0 5bbe 43b5 a0be 06c3 ebbe 7286 f03e
000001d0: 29cd c7be ba40 793e 8a08 8f3e 8553 a83d
000001e0: 6abc 0cbe 0f81 db3e 4158 03be 2b24 af3e
000001f0: 601a afbe 21d5 c1be 4173 51be 3133 3b3c
-0.053901102 0.50453717 -0.38907766 -0.53211135 -0.13269356 0.004541787 -0.35400704 0.4797002
-0.23421022 -0.30270514 -0.40303728 -0.17498486 0.28154656 -0.12079783 -0.11070956 0.09900606
0.048612513 0.10070688 0.34383112 -0.1448351 -0.24545813 -0.4991131 -0.07753568 0.48299694
-0.38393056 0.22975117 0.2432422 0.41513872 -0.45692375 0.27540448 0.46015102 0.100106254
-0.39150685 -0.2520691 -0.41189694 0.33768517 -0.5253539 0.1379982 -0.18834525 -0.18186116
0.43111452 0.053672712 -0.2488835 0.26302317 -0.037342124 0.31850043 0.46020037 0.1550114
0.070080765 0.35816962 0.32930765 0.25466964 0.1453622 0.28826925 -0.018759305 -0.076499596
0.110905394 -0.12948164 0.2547101 -0.16015308 -0.12001109 0.26129824 0.28920662 -0.5200202
-0.12615593 -0.52315265 -0.10109587 -0.17654663 0.5232899 -0.35804167 0.35840568 0.14905451
-0.19486013 0.007272062 -0.17095971 0.3697889 0.26477492 -0.3344035 0.38117793 -0.10740044
0.45932758 0.09540148 -0.45125848 0.28326622 0.06249156 0.48002225 -0.19285913 -0.47963265
-0.18112895 0.24638371 0.25786957 -0.24196021 0.27620766 -0.45650783 0.3303564 0.16489431
0.07697212 0.060873933 -0.1608493 0.3365374 0.24907084 0.14761132 0.0043599512 0.297695
0.38216147 -0.37096545 -0.2690237 0.45674554 0.09849694 -0.28277278 0.2900629 0.31562576
-0.21478523 -0.31388292 -0.4604723 0.46977574 -0.39023712 0.24341097 0.27936202 0.08219055
-0.1374375 0.428719 -0.12826635 0.3420728 -0.3419981 -0.37857917 -0.20454122 0.011425779

dec_embedding.bias f4 [32]
00000000: 38a8 9c3e 2e06 adbe eece b2be c2f9 de3e
00000010: 8518 cabe 5c9b 51be bbdc 9dbd c4b8 2ebe
00000020: e26c f7be 90bb 253e 31b0 d6be 80c3 e3be
00000030: f8c2 c23e ab18 b3bd 4ef3 9ebe db50 aabd
00000040: a5b9 dabe ecc8 f6be fa08 fc3b abbd 673e
00000050: 960d 51be 28b0 babe b83c 31be 2b4c 813d
00000060: 77dc 473d ad26 f8be 1457 593e 4746 82bd
00000070: 1da8 633e 47a0 973d ec6f a03d b111 983e
0.3059709 -0.33793777 -0.349235 0.43549925 -0.39471832 -0.20469421 -0.077081166 -0.1706267
-0.48325258 0.1618483 -0.41931298 -0.44485092 0.38039374 -0.087449394 -0.31045002 -0.08316203
-0.4271976 -0.48200166 0.0076915 0.22630946 -0.20415339 -0.36462522 -0.17308319 0.06313356
0.048794236 -0.48467007 0.21224624 -0.063610606 0.22232099 0.07403617 0.078338474 0.29700997

pos_proj.pe f4 [1, 70, 32]
00000000: 0000 0000 0000 803f 0000 0000 0000 803f
00000010: 0000 0000 0000 803f 0000 0000 0000 803f
00000020: 0000 0000 0000 803f 0000 0000 0000 803f
00000030: 0000 0000 0000 803f 0000 0000 0000 803f
00000040: 0000 0000 0000 803f 0000 0000 0000 803f
00000050: 0000 0000 0000 803f 0000 0000 0000 803f
00000060: 0000 0000 0000 803f 0000 0000 0000 803f
00000070: 0000 0000 0000 803f 0000 0000 0000 803f
00000080: a46a 573f 4151 0a3f ba7d 083f 0d94 583f
00000090: 3e39 9f3e 6b4e 733f 3a23 353e 83f6 7b3f
000000a0: 7675 cc3d 98b8 7e3f ae36 663d 6898 7f3f
000000b0: 5b81 013d 3cdf 7f3f 42ab 913c a3f5 7f3f
000000c0: 57d6 233c b9fc 7f3f 5a44 b83b f7fe 7f3f
000000d0: 1c3e 4f3b acff 7f3f 2015 e93a e6ff 7f3f
000000e0: 6d12 833a f8ff 7f3f 136a 133a fdff 7f3f
000000f0: 61cb a539 ffff 7f3f 5377 3a39 0000 803f
00000100: b7c7 683f 3311 d5be 0af2 663f b2e8 dc3e
00000110: 1b54 173f ec7b 4e3f f647 b23e a6fa 6f3f
00000120: f86f 4b3e a5e5 7a3f 86d9 e53d f361 7e3f
00000130: c870 813d f97c 7f3f 5ca5 113d 8ed6 7f3f
00000140: 3ed4 a33c e5f2 7f3f 9b43 383c dbfb 7f3f
00000150: d83d cf3b b1fe 7f3f 0815 693b 96ff 7f3f
00000160: 6812 033b dfff 7f3f 126a 933a f5ff 7f3f
00000170: 60cb 253a fdff 7f3f 5377 ba39 ffff 7f3f
00000180: c381 103e 2670 7dbf d745 7e3f ab7f edbd
00000190: c209 503f 582f 153f 6c2f 023f 296d 5c3f
000001a0: 6c4e 973e ef90 743f d7ee 2b3e 9e5d 7c3f
000001b0: c0ff c13d 4fd9 7e3f 4e69 5a3d c3a2 7f3f
000001c0: 1fb9 f53c 83e2 7f3f c631 8a3c adf6 7f3f
000001d0: 0d6e 1b3c 0dfd 7f3f a8cf ae3b 11ff 7f3f
000001e0: 929b 443b b5ff 7f3f 171f dd3a e8ff 7f3f
000001f0: 10b1 783a f9ff 7f3f 7ed9 0b3a feff 7f3f
00000200: cfbd 41bf 3055 27bf ec49 473f 9eaf 20bf
00000210: de1d 743f b12e 9a3e bc1f 273f edeb 413f
00000220: d761 c73e a7ca 6b3f c565 643e 098d 793f
00000230: 882e 013e 69f4 7d3f c88d 913d 465a 7f3f
00000240: dbcb 233d 94cb 7f3f a040 b83c 6cef 7f3f
00000250: c93c 4f3c c2fa 7f3f a714 e93b 58fe 7f3f
00000260: 5712 833b 7aff 7f3f 0c6a 133b d6ff 7f3f
00000270: 5ecb a53a f3ff 7f3f 5277 3a3a fcff 7f3f
00000280: 107c 75bf 2c3c 913e d8da a53e 4032 72bf
00000290: 7ffc 7f3f e972 29bc abca 463f f14c 213f
000002a0: 4377 f53e 40a9 603f ed11 8e3e 7cf2 753f
000002b0: 1d3c 213e 81ce 7c3f 21db b53d 1efd 7e3f
000002c0: f4b6 4c3d 19ae 7f3f fb4d e63c 19e6 7f3f
000002d0: 7e85 813c cff7 7f3f bbac 113c 69fd 7f3f
000002e0: ddd6 a33b 2eff 7f3f 8944 383b beff 7f3f
000002f0: 333e cf3a ebff 7f3f 2615 693a f9ff 7f3f
00000300: 8c0f 8fbe b8cd 753f 76e5 6bbe 531d 79bf
00000310: 4e78 723f 6d3f a4be 8830 603f 352f f73e
00000320: 688c 103f 3249 533f fc7d a93e e290 713f
00000330: 6e20 413e e367 7b3f c219 da3d 518b 7e3f
00000340: d19c 753d 128a 7f3f be2c 0a3d b3da 7f3f
00000350: 436c 9b3c 34f4 7f3f 05cf 2e3c 45fc 7f3f
00000360: 589b c43b d2fe 7f3f 031f 5d3b a1ff 7f3f
00000370: 08b1 f83a e2ff 7f3f 7cd9 8b3a f7ff 7f3f
00000380: 4630 283f bdff 403f 70b6 36bf 5e4f 33bf
00000390: 6ee8 4c3f bc74 19bf 4484 723f baf8 a33e
000003a0: 72eb 243f b3cc 433f de60 c43e c66b 6c3f
000003b0: 50d3 603e eac0 793f ba46 fe3d e904 7e3f
000003c0: 323e 8f3d 815f 7f3f 5e31 213d 3bcd 7f3f
000003d0: a252 b53c f2ef 7f3f 2af1 4b3c ecfa 7f3f
000003e0: c55f e53b 65fe 7f3f bcfc 803b 7eff 7f3f
000003f0: ed11 113b d7ff 7f3f 6628 a33a f3ff 7f3f
0.0 1.0 0.0 1.0 0.0 1.0 0.0 1.0
0.0 1.0 0.0 1.0 0.0 1.0 0.0 1.0
0.0 1.0 0.0 1.0 0.0 1.0 0.0 1.0
0.0 1.0 0.0 1.0 0.0 1.0 0.0 1.0
0.84147096 0.54030234 0.53316844 0.8460091 0.3109836 0.9504153 0.17689219 0.9842302
0.099833414 0.9950042 0.05620449 0.9984193 0.031617504 0.99950004 0.017781857 0.99984187
0.009999833 0.99995 0.0056233825 0.9999842 0.0031622713 0.999995 0.0017782785 0.99999845
0.0009999998 0.9999995 0.0005623411 0.9999998 0.00031622782 0.99999994 0.00017782794 1.0
0.9092974 -0.41614684 0.9021307 0.43146282 0.5911271 0.8065784 0.34820527 0.93741834
0.19866931 0.9800666 0.1122313 0.9936821 0.063203394 0.9980007 0.03555809 0.9993676
0.019998666 0.9998 0.011246587 0.99993676 0.006324511 0.99998003 0.0035565514 0.9999937
0.0019999985 0.99999803 0.0011246821 0.99999934 0.0006324556 0.9999998 0.00035565588 0.99999994
0.14112 -0.9899925 0.9932532 -0.11596616 0.8126489 0.58275366 0.5085361 0.86104065
0.2955202 0.9553365 0.16790329 0.9858035 0.094726086 0.99550337 0.053323083 0.9985773
0.0299955 0.99955004 0.016869437 0.9998577 0.009486687 0.999955 0.005334813 0.99998575
0.0029999954 0.9999955 0.0016870227 0.99999857 0.00094868336 0.9999996 0.0005334838 0.9999999
-0.7568025 -0.6536436 0.7784717 -0.6276797 0.95358074 0.30113748 0.652828 0.7575062
0.38941833 0.921061 0.22304447 0.9748083 0.12615407 0.99201065 0.07107121 0.9974712
0.039989334 0.9992001 0.022491753 0.99974704 0.01264877 0.99992 0.0071130577 0.9999747
0.003999989 0.999992 0.0022493629 0.9999975 0.0012649109 0.9999992 0.0007113117 0.99999976
-0.9589243 0.2836622 0.32393527 -0.94607925 0.99994653 -0.010342338 0.77652997 0.6300803
0.47942552 0.87758255 0.2774805 0.96073127 0.15745588 0.987526 0.08879686 0.99604976
0.049979165 0.99875027 0.028113356 0.99960476 0.015810724 0.999875 0.00889128 0.9999605
0.004999979 0.9999875 0.0028117022 0.99999607 0.0015811383 0.99999875 0.0008891396 0.9999996
-0.2794155 0.96017027 -0.23036751 -0.9731037 0.9471482 -0.3207964 0.8757405 0.48278204
0.5646424 0.8253356 0.3310393 0.943617 0.18860027 0.98205394 0.10649444 0.9943133
0.059964005 0.99820054 0.033734076 0.99943084 0.018972522 0.99982 0.0106694745 0.9999431
0.0059999637 0.999982 0.0033740408 0.99999434 0.0018973658 0.9999982 0.0010669674 0.99999946
0.6569866 0.75390226 -0.7137213 -0.7004298 0.8004216 -0.5994375 0.9473307 0.320257
0.6442176 0.7648422 0.38355154 0.9235195 0.2195561 0.9755999 0.12415834 0.9922624
0.06994285 0.997551 0.03935372 0.9992253 0.022134129 0.999755 0.012447635 0.9999225
0.006999942 0.9999755 0.0039363783 0.99999225 0.0022135929 0.99999756 0.0012447953 0.9999992

norm1.weight f4 [32]
00000000: 0000 803f 0000 803f 0000 803f 0000 803f
00000010: 0000 803f 0000 803f 0000 803f 0000 803f
00000020: 0000 803f 0000 803f 0000 803f 0000 803f
00000030: 0000 803f 0000 803f 0000 803f 0000 803f
00000040: 0000 803f 0000 803f 0000 803f 0000 803f
00000050: 0000 803f 0000 803f 0000 803f 0000 803f
00000060: 0000 803f 0000 803f 0000 803f 0000 803f
00000070: 0000 803f 0000 803f 0000 803f 0000 803f
1.0 1.0 1.0 1.0 1.0 1.0 1.0 1.0
1.0 1.0 1.0 1.0 1.0 1.0 1.0 1.0
1.0 1.0 1.0 1.0 1.0 1.0 1.0 1.0
1.0 1.0 1.0 1.0 1.0 1.0 1.0 1.0

norm1.bias f4 [32]
00000000: 0000 0000 0000 0000 0000 0000 0000 0000
00000010: 0000 0000 0000 0000 0000 0000 0000 0000
00000020: 0000 0000 0000 0000 0000 0000 0000 0000
00000030: 0000 0000 0000 0000 0000 0000 0000 0000
00000040: 0000 0000 0000 0000 0000 0000 0000 0000
00000050: 0000 0000 0000 0000 0000 0000 0000 0000
00000060: 0000 0000 0000 0000 0000 0000 0000 0000
00000070: 0000 0000 0000 0000 0000 0000 0000 0000
0.0 0.0 0.0 0.0 0.0 0.0 0.0 0.0
0.0 0.0 0.0 0.0 0.0 0.0 0.0 0.0
0.0 0.0 0.0 0.0 0.0 0.0 0.0 0.0
0.0 0.0 0.0 0.0 0.0 0.0 0.0 0.0

norm2.weight f4 [32]
00000000: 0000 803f 0000 803f 0000 803f 0000 803f
00000010: 0000 803f 0000 803f 0000 803f 0000 803f
00000020: 0000 803f 0000 803f 0000 803f 0000 803f
00000030: 0000 803f 0000 803f 0000 803f 0000 803f
00000040: 0000 803f 0000 803f 0000 803f 0000 803f
00000050: 0000 803f 0000 803f 0000 803f 0000 803f
00000060: 0000 803f 0000 803f 0000 803f 0000 803f
00000070: 0000 803f 0000 803f 0000 803f 0000 803f
1.0 1.0 1.0 1.0 1.0 1.0 1.0 1.0
1.0 1.0 1.0 1.0 1.0 1.0 1.0 1.0
1.0 1.0 1.0 1.0 1.0 1.0 1.0 1.0
1.0 1.0 1.0 1.0 1.0 1.0 1.0 1.0

norm2.bias f4 [32]
00000000: 0000 0000 0000 0000 0000 0000 0000 0000
00000010: 0000 0000 0000 0000 0000 0000 0000 0000
00000020: 0000 0000 0000 0000 0000 0000 0000 0000
00000030: 0000 0000 0000 0000 0000 0000 0000 0000
00000040: 0000 0000 0000 0000 0000 0000 0000 0000
00000050: 0000 0000 0000 0000 0000 0000 0000 0000
00000060: 0000 0000 0000 0000 0000 0000 0000 0000
00000070: 0000 0000 0000 0000 0000 0000 0000 0000
0.0 0.0 0.0 0.0 0.0 0.0 0.0 0.0
0.0 0.0 0.0 0.0 0.0 0.0 0.0 0.0
0.0 0.0 0.0 0.0 0.0 0.0 0.0 0.0
0.0 0.0 0.0 0.0 0.0 0.0 0.0 0.0

encoder.enc_layers.0.attention.query_projection.weight f4 [32, 32]
00000000: 9d81 de3d d3b6 4ebd 7236 263e 61e5 1bbe
00000010: 2e8a b73d 39c7 f13d ec94 f0bd 1ad0 5cbd
00000020: 121d ab3d dba8 cbbd 2469 9c3d e7f8 1d3e
00000030: eb29 3a3d a332 883d b5c0 cabd d04f eebd
00000040: 0d65 263d 1801 b63d fb64 743d afaf 02be
00000050: afd9 ce3d d8b7 d6bd c56f 163e ad60 933d
00000060: b8ad a83c aba4 16bd 124b 683c e2c0 1abe
00000070: 41ae d73c b422 f4bd 2474 d3bd bf58 713d
00000080: 1836 6b3d b129 2d3e 6190 403e 6225 8ebd
00000090: ed3a 1d3d 87b0 0abe 10dc 22be 131a fd3d
000000a0: 8b55 203b 96e2 3e3d 6030 573c fc99 fc3c
000000b0: 0d17 65bd 1699 083e 93f1 02be 3ab5 00be
000000c0: ccae 1c3b 33f6 33bd e0b3 093e 50a0 7dba
000000d0: fe94 953d 4fad a9bd 1d5b 1ebd eb2e 983d
000000e0: b421 113e 14de 1b3e da63 30be 400e 3a3e
000000f0: ce45 bb3d 2f84 df3d a056 98bc 6120 c0bd
00000100: 6b88 29bd 76e4 cd3d b3a1 11be 0d1f 57bd
00000110: c317 f6bd 6695 70bc ef16 0bbe f42d 3b3e
00000120: d829 ba3d 6656 23be 3d09 5d3c 554a dabd
00000130: 3bc7 04be c1d8 12bd d51d 1ebe 2e8c 933d
00000140: 6a42 1abe a4eb c4bd 21da 283c 066b b1bd
00000150: 0787 423d 8b8d 3abe 1766 f3bd 6bb2 15bd
00000160: 4558 a0bd 08dd 10be f2ac b13d 4043 06bd
00000170: bb64 a33d 797e ae3d 7b1c 553d 4c82 cd3c
00000180: e97a 2b3e c238 553c f4ca 633d 3ff9 9c3d
00000190: 9418 e9bd 32b9 db3d 919b 363e 47f9 b9bd
000001a0: 1a66 263e 5746 1ebe 2157 173e a0ff a4bd
000001b0: 38d4 7b3d 0105 0c3e 15ec 063c 7197 8e3d
000001c0: de68 143e 5b6f e43d a494 fb3c 9a1f 0abd
000001d0: 357a 14be f5cb 853d f72b 8d3c d541 243e
000001e0: 96c1 d5bc 982b ba3b 0954 483e c257 c73c
000001f0: 4a7a 23bc 6980 00be 0422 7bbd ff57 f8bc
00000200: af02 0bbe ed2d cc3d ccf4 7ebd 0650 583d
00000210: 4426 0dbe 048b ddbd ea87 253d 8fa7 2ebd
00000220: a829 223e 7a57 aabc 36e8 18bc 9223 29be
00000230: 74ab e5bd 4142 9abd 4678 193e a02d 153d
00000240: ae85 1bbe 2d51 093e 86a6 a83d 567e 6c3d
00000250: e77e f7bd 9ba6 bcbd 3642 0b3b 6826 2b3c
00000260: a4c4 dabd 9100 9c3d 7f2d 213e ab28 b73d
00000270: 10ec 80bd f69e e43d 370f 243d 68a4 0a3e
00000280: 7a31 283e 32be d43c 5ae7 213e f9bb 09be
00000290: 66ce fcbd 981e 1f3e 2feb de3d c5a3 383d
000002a0: a2ce 20be c193 19b8 c0c4 113e 02f6 d5bd
000002b0: 2907 2e3c 0874 18bd da1f 103d d0c3 05bc
000002c0: 9d8b 703d 9fc8 0e3d 638c 2d3e 403a 713d
000002d0: 787d 0e3e d1dd 16bd e645 b03d 4282 6bbd
000002e0: bf55 043e ebb7 353e 316d a6bc 53bb 983d
000002f0: 8100 5bbd 1f70 9a3d f8ee 613d b3d0 c9bd
00000300: 2bc0 f83d f87a 073d 30a1 c23b cfe2 05be
00000310: 877c 2b3d a486 6abd 9f81 ac3d 3866 b4bd
00000320: 1925 123d 68b3 963d 2e0f e03d 4009 8fbd
00000330: 695c 13bc 67bf 663d 84df a83d 4b54 88bd
00000340: 38e3 5cbd 9620 323e cb49 5fbd e367 f4bd
00000350: 7ad2 e83d e00f bcbc 9327 b63d 8e33 2bbe
00000360: b987 dcbd 410b afba 5e55 c3bd bf4b df3d
00000370: 636a 96bd d3cb 223d 151a 563d 7aa7 8e3d
00000380: 33b7 7a3d f794 193d f963 cd3d f14a 273e
00000390: bcf3 cc3c 7a09 b23d 6734 b73d 5ff5 49bd
000003a0: 0724 0dbe 4cab 363e 8168 27be b75c cfbc
000003b0: b49f d33d 1a28 41be 8668 d4bc 1383 dc3d
000003c0: 72c1 85bd cbdb 01be 5edf 0bbe 8c21 dfbd
000003d0: ab86 d4bd dd30 ef3c ba7c 3bbd c928 02be
000003e0: dfef 51bb a749 3d3c a18f e83b d5d3 9ebd
000003f0: a375 383d 2a05 063e d0fc d43d 5602 bf3c
0.108645655 -0.050467324 0.16231707 -0.1522422 0.089619026 0.11805577 -0.117471546 -0.0539094
0.08355154 -0.09944316 0.076372415 0.1542698 0.045450132 0.06650283 -0.09900037 -0.11636317
0.040623713 0.08886927 0.059666615 -0.1276233 0.101001136 -0.10484284 0.14691074 0.07196174
0.020590648 -0.036778133 0.014178054 -0.15112641 0.026328208 -0.119206816 -0.103248864 0.058922525
0.057424635 0.16910435 0.18805076 -0.06940724 0.038386274 -0.13543902 -0.1590426 0.12358489
0.002446505 0.046602808 0.013134092 0.030835144 -0.055930186 0.13339648 -0.12787466 -0.12569132
0.0023907898 -0.043935966 0.13447523 -0.00096750725 0.07303809 -0.08285009 -0.03866111 0.07430824
0.14173013 0.15221435 -0.1722559 0.18169498 0.091441736 0.10913884 -0.018595994 -0.09381176
-0.041389864 0.10053341 -0.1422184 -0.052519847 -0.12016251 -0.014684057 -0.13582967 0.18279248
0.09090012 -0.15950927 0.013490972 -0.10658709 -0.12966625 -0.035851244 -0.15441068 0.072044715
-0.15064397 -0.096152574 0.010305912 -0.08662991 0.047492053 -0.18218057 -0.118847065 -0.036547106
-0.07829336 -0.14146817 0.08675565 -0.03277898 0.07978197 0.085202165 0.052029114 0.025086544
0.16746105 0.01301402 0.055613473 0.076647274 -0.11381641 0.107286826 0.17832781 -0.09080749
0.16249886 -0.1545652 0.14779331 -0.08056569 0.061481684 0.13673784 0.008234997 0.06962479
0.14493129 0.11154052 0.030710526 -0.033721544 -0.14499743 0.06533042 0.017232878 0.16040738
-0.026093286 0.0056814663 0.19563307 0.024333838 -0.009977886 -0.12548985 -0.061311737 -0.030315397
-0.13575242 0.09969697 -0.062245175 0.05281069 -0.13784128 -0.10817531 0.04041282 -0.042640265
0.15836203 -0.020793665 -0.009332707 -0.16517475 -0.11214343 -0.07532168 0.14987287 0.036420465
-0.15187714 0.13409872 0.08234887 0.05773767 -0.120847516 -0.09211465 0.0021249182 0.0104461685
-0.106820375 0.076172955 0.15740012 0.08943304 -0.06295025 0.11163132 0.040053573 0.13539279
0.16425124 0.025969598 0.1581091 -0.13450612 -0.12344055 0.15539014 0.108847015 0.045078058
-0.15703824 -3.661565e-05 0.1423521 -0.10447313 0.010621824 -0.03722003 0.035186626 -0.008164361
0.058726896 0.034859296 0.16948085 0.058893442 0.1391505 -0.036832634 0.08607082 -0.05749727
0.12923335 0.1774594 -0.020315738 0.07457604 -0.053467277 0.07540917 0.05515954 -0.09854259
0.12146028 0.033076257 0.005939625 -0.13074802 0.041866805 -0.05725731 0.08423161 -0.08808559
0.03567991 0.07358438 0.10940395 -0.06984186 -0.0089942 0.05633488 0.08245757 -0.066567026
-0.05392763 0.17395243 -0.054513734 -0.11933877 0.1136827 -0.022956789 0.08894267 -0.16718885
-0.107680745 -0.0013354794 -0.09537767 0.10903119 -0.073445104 0.039745163 0.052270968 0.06965537
0.06120987 0.03749558 0.10028834 0.16337182 0.025018565 0.08693214 0.08945542 -0.04930627
-0.13783275 0.17838782 -0.16348459 -0.025312765 0.10333195 -0.18862954 -0.025928747 0.10767188
-0.065310374 -0.126815 -0.13659427 -0.108950704 -0.103772484 0.029198105 -0.045773245 -0.12710871
-0.0032033843 0.011553205 0.0070972 -0.077552475 0.045034062 0.13087907 0.10399783 0.023316544

encoder.enc_layers.0.attention.query_projection.bias f4 [32]
00000000: 6226 053e 027b 293e b609 053e c7b4 243e
00000010: a70f 233e f602 0ebe a062 533d 0d5d 17be
00000020: 8404 a3bd c9ba e03d 5534 773d 3260 52bb
00000030: 26dc 343d 05cb 033e e5dd a83d b976 0f3e
00000040: 4614 5c3d f3cf 393e c852 1ebe bfb3 afbd
00000050: 46af 383d 4449 63bd 3923 17bd 7c74 c93d
00000060: b5ab d7bd e0cc 963d afd4 923d 6630 82bd
00000070: 3a54 4b3d 0f9e bfba 7ca4 8bbd 60de 813b
0.13002923 0.1655083 0.12991986 0.16084586 0.1592394 -0.13868317 0.051607728 -0.1478159
-0.07959846 0.109731264 0.060352642 -0.0032100794 0.044155262 0.12870415 0.08245448 0.14010133
0.05373027 0.18145733 -0.15461266 -0.08579206 0.04508903 -0.055489793 -0.036898825 0.09836671
-0.105307974 0.073632956 0.071694724 -0.063568875 0.04964087 -0.0014619249 -0.06818482 0.0039632767

encoder.enc_layers.0.attention.key_projection.weight f4 [32, 32]
00000000: 76ce edbb fa8b 253d b14c 2bbe 21c8 1bbe
00000010: a6e6 c03d d14c e83d 2884 303d 1f9b ab3d
00000020: ebe9 e0bc d9cd 903d 5f7a 5abd aaad 3bbd
00000030: a477 0ebe 9071 bf3d a604 57be afd9 5abc
00000040: 4cac 193e 6f93 0c3e 4835 4b3e fe5f e23c
00000050: 487c 183e b866 283e da5d d23c 8a8b 813c
00000060: 9207 643d ca13 9c3d bcce 0cbe 6b16 0e3e
00000070: a764 4bbd d3f5 843d 15c4 f83d 768b 27be
00000080: 6f38 0ebe a816 6c3b 04fb 53bd 4371 893c
00000090: 2c95 bf3d d91b 25be d638 db3d b7fb 033e
000000a0: 7aec 4b3e 0e87 0fbe f0b3 f1bd d19c ed3c
000000b0: 166a 7bbc d1f5 cb3d cf5b 363e 31de 0cbe
000000c0: ab33 19be 24f6 84bd e791 f0bd 4d0f 24be
000000d0: 839b 183d b20e aabd 1db9 a1bd dfe7 ffbd
000000e0: 8a8d f73d 43be 163e db79 0d3e a25b b73d
000000f0: 6333 ef3c a382 24be f4ac 853d 8880 953c
00000100: 483e d0bd faf9 0d3e 9a29 c4bc f68b b53d
00000110: c6dd 8dbc b2ff 27be a36e 19bd e74d 0b3d
00000120: 49d2 213b f096 f03a 321b 85bd 6225 0d3d
00000130: efb2 2e3e bdae 813c cda0 d6bd 8417 e93c
00000140: ef31 4f3d c79e 113e e9ea 93bd fec9 52bd
00000150: 7f40 003e a49c 2c3e 6b44 f0bd add6 10be
00000160: 0e98 ff3d 557f fa3c 477e 07bd 4036 843d
00000170: 2145 2f3e 4262 1d3e b0b2 9b3d e7ab 16be
00000180: bb77 22bd 321d 553d c5fe 833d 1bd0 9abd
00000190: 62b4 ed3c d39f 2cbc 1f0a 81bd 7e7e 2ebe
000001a0: 5c39 033e a702 0b3e 9592 173d 372f 173e
000001b0: 466a 32be 53b2 33be 7235 8fbd cbd6 35bd
000001c0: e436 f5bd 97a6 313e 77be e3bd e80e 1e3e
000001d0: 3bb2 0dbe e5fa 0fbe f45e 663c ed1c 363e
000001e0: c314 1abe 1b7f e5bd 43f1 c73d 5b1f 033d
000001f0: 6f1c 843d f3df c23c 5cea 253d 42d6 babd
00000200: a525 263e f55b a33b 6a88 3c3c f408 5dbc
00000210: c83e 143e bb43 d1bd 19c8 18bd e4e3 173e
00000220: e60a 223e c738 21be 248c 413d a959 f83c
00000230: 0a85 013e 64f3 193e fa4c c2bd 74f3 fdbc
00000240: 71ed 2d3e 4a30 173e 2b92 10be 2335 bc3c
00000250: 2f03 673d 8eb1 1dbe ec68 ce3d 5343 203e
00000260: e6f1 12bd 0815 dcbd d5f5 72bd 4f96 aabd
00000270: a31d 36be 00b4 8d3d 8a71 dcbd f172 91bc
00000280: b7b7 2abd fab3 abbc aabc a33d a4ef 17bd
00000290: 6248 b13c a0da 1cbe cb67 fa3c 3788 1f3d
000002a0: 9a9a debd 5798 9abc b427 c13b d598 1e3e
000002b0: daf0 30be 7f0d b43d 8a68 113e 6676 2b3d
000002c0: 1024 153d b379 f23d 8565 45bc 1b33 2fbe
000002d0: 6023 413d 796e 91bb 65c3 edbc c941 cf3d
000002e0: 4a73 0bbe 3e6e e73d 201c 2d3d 4182 bd3d
000002f0: a3c7 13be 956c 333c 239e 19be 955a c63d
00000300: 5a56 93bc 3510 02be 11a5 23be 8d6f fabd
00000310: ad50 2abd dd38 d4bd da93 61bd b6c2 ddbd
00000320: 991a 9bbb a7ba b83c 4db4 0cbe f05b 563d
00000330: b4fd ec3d 00c8 bbbd 404b 0e3e 6d94 c33c
00000340: c386 edbc 882b 65bd 4f20 82bd 04e6 08be
00000350: 4c18 003e 86c8 f8bd 9033 b13d 6110 cabd
00000360: 37a6 123d 3658 623d 0401 0dbe 5330 a7bd
00000370: 2dd4 203e 7b31 fb3d 9d03 abbd 12ad 1a3d
00000380: 131f 0b3d 5612 c93d 6e3c 263d 507b 223e
00000390: a99f 17bd 980f e93d 55bb de3c 8ef5 1b3e
000003a0: bfb0 b93a c52d 023d 5ac4 1b3e 81f1 133e
000003b0: b574 9dbd dc5e 7bbd 5e58 92bc a3f4 083d
000003c0: cbc3 30bd fe3a 543d a92d f4bd 47f9 9c3d
000003d0: 893f c0bd daa8 7cbd 7365 c8bd 5ebf 25be
000003e0: 2923 cdbc 1a6b 25be d376 25be 73d9 c63d
000003f0: de7f c0bc ddae bfbd b330 2d3e 29d2 053e
-0.007257278 0.040416695 -0.16728474 -0.15213062 0.09418993 0.113427766 0.043094784 0.083791964
-0.02745529 0.07070512 -0.05333936 -0.045819916 -0.13912827 0.09347832 -0.20997867 -0.013357564
0.15007132 0.13728116 0.19844544 0.027633663 0.1489116 0.16445434 0.025679518 0.015813608
0.055671282 0.07620962 -0.13750738 0.1387574 -0.049656536 0.064922 0.12146775 -0.16361794
-0.13888715 0.0036024246 -0.05175306 0.01677764 0.09354624 -0.16123904 0.107042 0.1288899
0.19914427 -0.14016363 -0.118018985 0.02900544 -0.015345117 0.09958995 0.1780846 -0.13756634
-0.14961116 -0.0649226 -0.11746579 -0.16021462 0.037257683 -0.08303584 -0.07896636 -0.12495398
0.12087543 0.14721017 0.13816015 0.089530244 0.029199308 -0.16065459 0.06527129 0.018249765
-0.10168129 0.1386489 -0.023945618 0.08864586 -0.017317664 -0.16406134 -0.037459027 0.03400984
0.002469199 0.001835553 -0.06499328 0.03445948 0.17060445 0.015830392 -0.10479889 0.028453596
0.05058473 0.14220725 -0.0722254 -0.051462166 0.12524603 0.16856629 -0.117318 -0.14144392
0.12480174 0.030578295 -0.03307941 0.0645566 0.17116214 0.15369514 0.07602441 -0.14714013
-0.039664965 0.052029796 0.06445078 -0.07559224 0.029016677 -0.010536152 -0.063007586 -0.1704044
0.1281485 0.1357523 0.037005026 0.14764105 -0.17423353 -0.17548494 -0.06992616 -0.044394296
-0.1197336 0.17348705 -0.11120313 0.15435374 -0.13837521 -0.14060552 0.0140607245 0.17784472
-0.15046982 -0.11205884 0.09762814 0.032012325 0.06450736 0.023788428 0.040506706 -0.09122898
0.16225298 0.0049853274 0.011507133 -0.013490904 0.14477074 -0.10217997 -0.037300203 0.14833027
0.1582447 -0.15744315 0.04725279 0.03031619 0.12648407 0.15034252 -0.09487338 -0.030999877
0.16985108 0.14764515 -0.14118259 0.022974556 0.05639952 -0.15399763 0.10078606 0.15650682
-0.035875224 -0.10746199 -0.059316475 -0.0832945 -0.17784743 0.06919098 -0.10763843 -0.017755004
-0.04167911 -0.020959843 0.07994969 -0.037093773 0.02164096 -0.15317774 0.03056707 0.038948264
-0.10869332 -0.01887147 0.0058946256 0.15487988 -0.17279378 0.08791637 0.14200035 0.04186096
0.036411345 0.118396185 -0.01204813 -0.17109339 0.047152877 -0.004438218 -0.029023835 0.101199694
-0.13618198 0.11300324 0.04226315 0.092533596 -0.14431624 0.010951181 -0.1500173 0.09685246
-0.017985512 -0.12701495 -0.15980937 -0.12228308 -0.041580845 -0.10362408 -0.055072643 -0.10828154
-0.0047333953 0.02254994 -0.13740654 0.052333772 0.115718275 -0.09169006 0.13895893 0.023874486
-0.028994923 -0.055949718 -0.063538186 -0.13368994 0.12509269 -0.12147622 0.08652413 -0.09866405
0.035803046 0.055259906 -0.13769919 -0.08163514 0.15705939 0.12265297 -0.083502986 0.03776271
0.03396518 0.098179504 0.040584974 0.15867352 -0.0370175 0.113799274 0.027188936 0.1523039
0.0014167054 0.03178193 0.15211621 0.14447595 -0.07688276 -0.06136976 -0.017864402 0.03343643
-0.043155473 0.05181407 -0.119227715 0.076647334 -0.09387118 -0.061684467 -0.09784975 -0.16186282
-0.02504118 -0.16154137 -0.16158609 0.09709444 -0.023498472 -0.093595244 0.16913109 0.13068451

encoder.enc_layers.0.attention.key_projection.bias f4 [32]
00000000: 6ec8 a73c 54af 9e3d a162 08be ecb6 46be
00000010: b3c7 ca3d 417d 4bbd 7a36 e6bd d1ff 0cbe
00000020: babd 2cbe 030e 55bd 262c d93d 6587 d23d
00000030: 418d ad3d c9c6 fc3d 39d9 15be 80cc 3a3e
00000040: e165 2ebd 6e5a aebd cbd2 20be bef0 2ebe
00000050: e515 c73c f0d2 41be c563 e83d 4649 42be
00000060: fd08 e23d 40ba aabc 9c58 f23a 83cc 233e
00000070: e096 263d 540b b3bd d6b6 1fbd 6b47 06bd
0.020481315 0.07748285 -0.13318874 -0.19405717 0.09901371 -0.04968 -0.11240859 -0.13769461
-0.1686925 -0.052015316 0.10604124 0.10279731 0.08474208 0.12342603 -0.14633645 0.18242073
-0.042577628 -0.08513342 -0.15705411 -0.17084023 0.024302432 -0.18928123 0.113471545 -0.18973264
0.11036871 -0.020840764 0.0018489542 0.15995984 0.04067123 -0.08742395 -0.038992725 -0.032782953

encoder.enc_layers.0.attention.value_projection.weight f4 [32, 32]
00000000: ea46 393e 4634 3b3e 71ee 94bd 009f 1cbd
00000010: 21b8 0fbd c893 9e3d a749 cd3c 019a 803d
00000020: 1d35 3b3d 4d48 4abe 337a 1dbe d04d 1d3e
00000030: 18c5 28be e74b 23bd 72a7 f03d 8a20 6c3d
00000040: 14b3 dfbd 48ee 21bd 14ad 0e3c e12a 873d
00000050: 0ea6 583d 3a88 353e 7a9c 6ebd 0d47 9b3c
00000060: c80d 243d 3b31 033e d667 1a3e 4b0b 733d
00000070: 2e67 22be b915 983d 0e8d 143c c5c0 b83c
00000080: ce90 853d 01cf 64bd cc80 1dbe 9525 aebc
00000090: eced 1ebc 1ec1 4fbe 041d 103d f9e7 1dbe
000000a0: 24e2 9bbb 8da0 9c3d 437f 19be 82be 003e
000000b0: e07c a5bd 59f8 9c3d 958b 60bd 2539 11be
000000c0: ebc7 e9bd 26a9 913d 5963 f73c 522b f4bd
000000d0: 6583 d8bd 8740 a7bd 03f7 0ebe 113e 213e
000000e0: 3077 c23d 293a e3bb 34bb 123e 0c4f 7f3d
000000f0: f585 fb3d 6c40 3c3e e607 22bd cf04 afbd
00000100: df35 73bd f01b 65be 3af6 d9bd 1827 8cbd
00000110: f7db aabd 7210 26be 7ba0 2cbc 8549 91bb
00000120: ebcc 96bd 5926 b9bd 87a7 efba 41b4 26be
00000130: 2214 993d 1fc7 433e 5f91 09be 98ec 6d3d
00000140: 722c fabb ed7c e1bd 6531 493d 4b6d ed3d
00000150: 2ffe 1fbd d7cd e73d 5ed5 41be 8da0 6d3d
00000160: 3e6f 1f3d 78f5 093c 4831 1c3d 1ed7 0cbd
00000170: feb1 143e 381b 1a3e 0310 cb3d aded 523c
00000180: bdc9 f5bc e5db 20bb b7a9 b93c 15e5 3fbd
00000190: 4423 c5bd 7a4c 34be a18f 4dbd 98c2 7ebc
000001a0: 8193 513d 07e3 113e 823e 07be 8d05 39be
000001b0: 810c 023e 5cfe a93d 6dcd b5bd 54c8 ac3d
000001c0: b4f6 1dbe d1c3 1dbd 301a 9fbd fa65 223e
000001d0: da16 54bc e602 303e 67b3 77bd 31f6 dd3d
000001e0: 70b0 c03d 73f2 c33d 6bff 003e c9da 2a3e
000001f0: b47f 2abe 4125 363e e52d 97bd f0d5 c8bd
00000200: a38c 26be 4055 323d b773 3d3e fc2d c83c
00000210: f857 e23d 115e 0a3e a60d 00bd a642 ccbc
00000220: dbce 00be ab73 6b3d 46f7 93bb 788d 923c
00000230: 0319 92bd 5edf 453e d750 7abd 394f 91bb
00000240: b35f 983d d5a1 01bd 17b0 71bd ecf6 2cbc
00000250: b199 23be bebb e3bd b849 f43d 0bb4 2c3e
00000260: 2fbd a13c d230 12be 2a17 943d 98d2 2abe
00000270: 8520 103e 49f5 09be a387 0f3e 9076 643c
00000280: 89ea 8fbd da40 0abe 9e16 36be 6a5a 49be
00000290: 4d99 003d 2e75 2abe 68c4 213d 4392 0e3e
000002a0: 711f 2ebe 51b4 203e d12a 18be 5150 0d3d
000002b0: 6ffc e2bc 61c3 65be 9fd6 1f3c 1229 713d
000002c0: 930b 20be b85b b43c eb17 1fbe 18fe 283e
000002d0: 2242 ba3d ec41 123e 6fc6 0bbe 5279 5e3d
000002e0: d1ee 13be 04a9 30bb 2a3d df3d 87fa 82bd
000002f0: 576b 2d3e 3e46 4c3d fcb7 e23d a62f 34be
00000300: 6a2e 02be 7c56 32be 923f 1e3d 5e2a 0cbe
00000310: a8c6 a4bd 5add bd3c 1f89 82bd efea 4d3d
00000320: bd8c b83d 3996 a53c 73e1 473e 481d 003e
00000330: 8a62 82bc e7dc c23d 99cc ddbc fa02 08be
00000340: 9c3a d23d e89b c93c 5f48 a6bd 440e 02be
00000350: 2f02 3abd 7672 9b3c 498b 583d a277 9f3c
00000360: 86a4 fd3d 62de eb3d c220 083e e844 863d
00000370: b6b6 2bbe ba13 79bd bf00 7f3d 7b30 dbbd
00000380: 3488 203e 5ef2 313d a671 9b3d 3233 fabd
00000390: 32f4 08bc cb33 fdbd 073b f13d 16c5 a33d
000003a0: 6d2e a83c c3e0 3abd 5b42 1d3e 6557 d8bc
000003b0: f4c3 3fbe ff2e 38be dc0a 2bbe 3f35 dabc
000003c0: d8b9 78bd 1bc1 ab3d 4e56 903d 70fd 373d
000003d0: cfd3 ca3c 248b 2abd 9da0 81bc 6505 023e
000003e0: b19e b7bd 9387 d7bc adee 0e3e e600 9d3c
000003f0: 857e b1bd 4b05 fdbd 0774 1a3e 442d 7abd
0.18093458 0.1828166 -0.072720416 -0.03823757 -0.03508771 0.07743031 0.025059534 0.06279374
0.04570495 -0.19754143 -0.15378647 0.15361714 -0.16481435 -0.039867308 0.11750688 0.05764822
-0.10922828 -0.039533883 0.008708257 0.065999754 0.052892737 0.17727748 -0.058254696 0.018954778
0.040052205 0.12811749 0.15078673 0.05933694 -0.15859672 0.07426018 0.009066833 0.022552857
0.0652176 -0.055861477 -0.15381163 -0.021258155 -0.00970028 -0.20288512 0.03518392 -0.15420522
-0.0047571827 0.0764781 -0.14989953 0.12572673 -0.08080459 0.07664556 -0.054820616 -0.14181955
-0.114150845 0.07112341 0.03019874 -0.11922325 -0.105719365 -0.081666045 -0.13961415 0.15746333
0.094953895 -0.0069344235 0.14329225 0.062331244 0.1228141 0.1838395 -0.039558314 -0.08545839
-0.059377547 -0.22373939 -0.10642667 -0.06843394 -0.08342736 -0.16217211 -0.010536308 -0.004433813
-0.07363304 -0.09040517 -0.001828418 -0.16279699 0.07474543 0.19118927 -0.13434361 0.05808696
-0.007634693 -0.11010156 0.049119372 0.115931116 -0.039060768 0.11318558 -0.1892905 0.05801444
0.03892445 0.008420341 0.038132936 -0.03438484 0.14521024 0.15049446 0.09915163 0.012874049
-0.030003423 -0.002454513 0.022663934 -0.04684933 -0.09625867 -0.17607298 -0.050185803 -0.015549324
0.05116606 0.1424676 -0.13207439 -0.18068524 0.12700082 0.08300468 -0.088770725 0.08436647
-0.15426141 -0.038516823 -0.07768667 0.15859213 -0.012944901 0.17188606 -0.060473826 0.10837973
0.09408653 0.09567728 0.12597434 0.16685022 -0.16650277 0.17787649 -0.073818006 -0.0980643
-0.16264586 0.043538332 0.18501173 0.02443599 0.11051935 0.13512446 -0.031263016 -0.024934124
-0.12578909 0.057483356 -0.0045155613 0.017889723 -0.07133677 0.19323489 -0.06111225 -0.004434493
0.07440128 -0.031648476 -0.059005823 -0.010556918 -0.15976597 -0.11119793 0.11928123 0.16865556
0.01974353 -0.14276436 0.07230981 -0.16681898 0.14074905 -0.13472475 0.14016585 0.013944283
-0.07027156 -0.13501301 -0.17782065 -0.19663396 0.0313962 -0.16646263 0.03949395 0.13922982
-0.17004181 0.15693785 -0.14860083 0.034500424 -0.02770826 -0.22437812 0.0097557595 0.05887706
-0.15629415 0.022016391 -0.15536468 0.16503179 0.09094645 0.1428296 -0.13649915 0.05431492
-0.1444657 -0.002695621 0.10900338 -0.063954405 0.16935478 0.049871676 0.110702485 -0.17596301
-0.12713018 -0.17415804 0.038634844 -0.13688037 -0.08045703 0.023176838 -0.0637381 0.05027288
0.09011219 0.020213233 0.19519596 0.1251117 -0.015916128 0.0951479 -0.027075099 -0.13282385
0.10265085 0.024610475 -0.081192724 -0.12700754 -0.04541224 0.018975478 0.052867208 0.019466225
0.12384896 0.115170255 0.13293746 0.065561116 -0.16768917 -0.06080983 0.06225657 -0.10702606
0.15676957 0.04344403 0.07590036 -0.12216796 -0.008359002 -0.12363394 0.11778837 0.079965755
0.02052995 -0.045624506 0.15357344 -0.02640886 -0.18727094 -0.17986678 -0.16703361 -0.026636718
-0.06072411 0.08386441 0.07047711 0.04491943 0.024759201 -0.0416366 -0.015823657 0.1269737
-0.08965815 -0.026309764 0.13958235 0.019165467 -0.0866671 -0.12354525 0.15083323 -0.061078325

encoder.enc_layers.0.attention.value_projection.bias f4 [32]
00000000: c369 023d 7f18 413e 28e5 2d3e 0438 913d
00000010: 3d15 8fbd 0aca e1bd da42 37be 57a1 9f3d
00000020: 53f6 59bd e9da 45be 046b e8bd 796e c63d
00000030: 18a3 fcbd 9e5d 08be 51f3 47bd c2aa 34be
00000040: a21f 083e 5094 2a3e 6486 11be 40a8 b4bd
00000050: 50ff e1bc 8de5 483d 1f13 1e3e 9f7c 51bd
00000060: 9fda 84bd ebd6 1e3c bc72 e13d 0b71 1bbe
00000070: 84be cebd edd0 e53d dd48 f33c ca40 c73d
0.031839143 0.18857001 0.16981947 0.07090762 -0.06986473 -0.11024864 -0.17896596 0.07794445
-0.05321343 -0.19321789 -0.113485366 0.0968904 -0.12335795 -0.13316962 -0.04881603 -0.17643264
0.13293317 0.16658139 -0.14211422 -0.08821154 -0.027587563 0.04904704 0.15436982 -0.05114424
-0.06487011 0.009694795 0.11008212 -0.15179841 -0.10094932 0.1122149 0.02969783 0.097291544

encoder.enc_layers.0.attention.out_projection.weight f4 [32, 32]
00000000: be51 1fbe 116a 2a3d 7b9a c43d 7046 203b
00000010: c61a 603d 3714 d73c 4b3a 82bd 37bb 13be
00000020: 77ae 2d3d b87f e8bd 05b4 1dbe 9bf7 0ebe
00000030: 4b38 983b 4076 d1bd e595 873c 3064 96bd
00000040: 89fe f1bd 1048 733d 3b2a adbd 6aec 773d
00000050: bac1 d8bc df23 10be a5ab b03d d092 1bbd
00000060: ad2c 1bbd 12fe 453c 0c6d 33bc d89e 293e
00000070: 7d25 4fbd b20a 323d 5847 803d d906 0fbe
00000080: 542d 86bc 46d9 9e3c 1a72 24be a3ba 1dbe
00000090: 5697 303d bd19 36be cc9a 813d f406 40bc
000000a0: cb91 c53d a86a 583e 8ead 08be f43c f2bc
000000b0: 0a88 77bd ef5c bdbd fc30 52bd 535f da3b
000000c0: dbf7 013d c1bc 8f3d 161c b63c 44dd 413e
000000d0: ab02 b3bd c9bf 003e f86b e4bd d355 3bbe
000000e0: ab4d 73bd 7178 17bd 971b eb3d 5970 eebd
000000f0: c40a 4a3d da8b 2e3d 1859 413d 5ffd 043e
00000100: 9c44 c23d e291 b7bd 3445 053e ad1d 0abe
00000110: 2f2f b83b e253 c0bc c4b8 55bc 3402 063e
00000120: 8d01 db3d ca78 11bd 930f 7bbd 02a3 70bd
00000130: 66fc 27be 5790 ed3d 5f26 0dbe 013f 27be
00000140: e7cd 2bbc 35c7 7cbd 0c44 3c3d f53b 9bbd
00000150: f0f0 43bd 85af b8bd cc0c 803d ac63 e23d
00000160: 119c 643d a754 c7bd 3dfe 1dbe 2816 fd3d
00000170: 3874 f4bd 5193 2abd eb97 d8bd 85a9 43be
00000180: 4a33 e7bc d067 243e be1c 9d3d 49ae 8abd
00000190: 93b2 dcbd bdb7 f93d 4b3d 58bd 0545 25be
000001a0: a8fb 1ebe 4733 0c3e d6be 1abe b0c7 e5bd
000001b0: 4601 e93d 6772 1c3e e8b1 02be 1bc8 10be
000001c0: 93cc 013e cf26 8cbd 6eb9 f8bb 0f89 c63d
000001d0: 6bf0 2cbc 0dff 1b3e 38c1 09be 5380 f93d
000001e0: c8c4 1bbe 64bf 0fbe e0e1 5bbd 67c1 a7bd
000001f0: 41ff c23d b300 c93d 9642 02be 07cd 95bd
00000200: 37df 27bc ef1a 0bbd 31c1 f4bc e154 603d
00000210: 3727 57bd e9ea c2bd f803 32be a9a7 073e
00000220: 2334 103d 8da6 d53d 089b 2fbe 94ac 0b3d
00000230: ee58 a93c bab1 13be 45eb c8bd b2eb c7bd
00000240: b5e2 ea3d 6889 f0bc ac7e 28be 44f3 233d
00000250: d5cb 1a3e 9d1d 003d d581 bcbd dba0 27bd
00000260: 768d c0bd 1543 863d dc54 23be 481d 11bd
00000270: e811 033d 172c 22be 153d 3bbe 7e4d 9abd
00000280: 7017 aebc 6043 8e3d cae2 293d 382b ddbd
00000290: d5a3 013e 42bd 19bd 917a 2bbe fa45 bcbd
000002a0: 16e6 0bbe 1244 a33d 2111 f53b 8a83 383d
000002b0: a673 a0bc 8ed5 6d3d 59a4 1dbe 420f 11bc
000002c0: be44 1abc e39c 2f3d 24dc ebbd 20bc 5f3d
000002d0: 992f d9bd ee01 1b3e 6e05 33be e27f 893d
000002e0: fbde 17be 1241 1a3d d96a 15bc 22c3 59bd
000002f0: cb29 24bc 0a15 e93b 8e71 18be 3d94 2f3d
00000300: ec84 9fbd f2db 98bd 9073 0e3e 0519 fa3d
00000310: 2f80 aa3d f788 e6bd f7af c63d 7713 b03d
00000320: 6922 2c3e ca9d 1f3d 1f1c 28bc 4fc7 13bd
00000330: b09e fdbd 43c2 d5bb 512b 2a3e f51a 17bd
00000340: 248d e3bc d9e9 0a3e 6608 ffbd c6c4 ed3d
00000350: 9b61 f0bd f338 903d ec91 c83c 6816 f63d
00000360: 6497 2fbc 6f2c 0b3e 9a62 a13d 5799 0d3e
00000370: b83c e4bd 0ccc 5dbd 2653 83bd e600 b63d
00000380: 6bb0 d2bd 6aa6 c73d c98b 113e a45e 7c3c
00000390: 2035 a73c 1ada b23a 8b75 5d3c ff81 edbd
000003a0: ad9f efb9 dabc 363d adf3 523d 1197 5ebd
000003b0: 2198 c73d 9c9a 7c3d 1761 1a3d c714 e1bd
000003c0: a1fa b9bd 57f6 003e 5de9 f33d 686b 1b3e
000003d0: 1778 903d ad83 a83b 018c dd3d 9863 e63d
000003e0: 4123 00be 5fbd bd3d 08eb d9bd 855e 943c
000003f0: 5782 e5bd 1d4e 49be 70a1 b93d 53c2 10be
-0.15558526 0.04160506 0.09599777 0.0024456047 0.054713033 0.026254756 -0.06358775 -0.14426886
0.04240271 -0.113524854 -0.15400703 -0.13961641 0.0046453825 -0.102276325 0.016550967 -0.07343328
-0.11816127 0.059394896 -0.084553204 0.060528196 -0.026459564 -0.14076184 0.086264886 -0.03798181
-0.037884403 0.012084501 -0.010951292 0.165645 -0.05057286 0.04346723 0.06263608 -0.13967456
-0.016379036 0.019390713 -0.16059151 -0.15403228 0.043113075 -0.17783256 0.06328353 -0.011720408
0.096469484 0.21134436 -0.13347456 -0.02957008 -0.06043247 -0.09246241 -0.051316246 0.0066641956
0.031730514 0.07018424 0.02223019 0.18932062 -0.08740743 0.1257316 -0.11153406 -0.18294458
-0.05940024 -0.036980096 0.11479872 -0.11642522 0.049326673 0.04261384 0.047204107 0.12987278
0.094857424 -0.08963372 0.1301468 -0.13487883 0.005620859 -0.023477498 -0.01304454 0.13086778
0.10693655 -0.035515584 -0.06129415 -0.058749206 -0.16404876 0.11599796 -0.13784169 -0.16332628
-0.010486103 -0.061713416 0.045963332 -0.07579795 -0.047837198 -0.09017853 0.06252441 0.11054167
0.0558129 -0.09732943 -0.15429015 0.123577416 -0.119362295 -0.041644398 -0.10575851 -0.19107635
-0.028222699 0.16055226 0.07671498 -0.067715235 -0.10776248 0.121932484 -0.05279283 -0.1613961
-0.15525687 0.13691436 -0.1511186 -0.11219728 0.11377196 0.15278016 -0.12763178 -0.14138834
0.12675695 -0.0684334 -0.0075904643 0.096941106 -0.010555367 0.15234013 -0.13452613 0.12182679
-0.15211785 -0.14037853 -0.053682208 -0.081911854 0.09521342 0.098145865 -0.12720713 -0.073144965
-0.01024609 -0.033961233 -0.029877277 0.054768447 -0.052527633 -0.09517462 -0.17384326 0.13247551
0.03520597 0.10432158 -0.17148983 0.03410013 0.020672288 -0.14423266 -0.09810499 -0.09761752
0.11469022 -0.029362395 -0.16454571 0.040026918 0.15116818 0.03127824 -0.09204451 -0.040924888
-0.094019815 0.06555764 -0.1595034 -0.035428315 0.0319995 -0.15837131 -0.1828502 -0.07534312
-0.02125141 0.069464445 0.04147605 -0.10799259 0.12660153 -0.037534006 -0.16745974 -0.091930345
-0.1366199 0.07971968 0.0074788486 0.04504732 -0.019586395 0.05806499 -0.15394725 -0.008853735
-0.0094158035 0.04287423 -0.11516598 0.05462277 -0.10604782 0.15137455 -0.1748254 0.06713845
-0.14831154 0.037659712 -0.009119713 -0.05316461 -0.01001973 0.0071131038 -0.14887068 0.04286598
-0.07789025 -0.07463826 0.13911271 0.12211803 0.0832523 -0.11256593 0.097015314 0.085974626
0.16810001 0.03896884 -0.010260611 -0.036078747 -0.12383783 -0.006523402 0.16618086 -0.036890943
-0.027777262 0.13565768 -0.12452774 0.11609797 -0.11737367 0.07042112 0.024483643 0.120159924
-0.010717247 0.13591169 0.07880135 0.13828026 -0.11144394 -0.054149672 -0.06412344 0.0888689
-0.10287555 0.09748538 0.1421348 0.015403423 0.020411074 0.0013645322 0.013516794 -0.115970604
-0.000457046 0.044613697 0.05150192 -0.054343287 0.09745813 0.061670884 0.03769025 -0.10990291
-0.09081007 0.12593971 0.11909745 0.15177691 0.07054155 0.00514265 0.10817719 0.11249465
-0.12513448 0.09264635 -0.10640532 0.018111477 -0.11206501 -0.19658704 0.09063995 -0.14136629

encoder.enc_layers.0.attention.out_projection.bias f4 [32]
00000000: 06a8 e03d e505 6d3d fe92 6f3b d6a9 3a3e
00000010: 97ba 24bd 577b 32bd 0d71 a7bd 8126 963d
00000020: 4d38 0fbd 275f 41bc 10f9 da3d 6a03 833b
00000030: 84dc a33d f131 89bb a49a efbd b216 493e
00000040: 5772 1ebe cc67 983d 0909 94bd 83fc 16be
00000050: 587d 71bd 56e8 21be 58f1 ec3d a6d6 13be
00000060: 338d 0ebd b070 ea3d 5fc8 44be 87b1 bbbd
00000070: c1ff 943d 3451 323d d529 5fbd d082 edbd
0.10969548 0.05786695 0.003655612 0.1822885 -0.04021701 -0.043574657 -0.081758596 0.07331563
-0.034965802 -0.011802471 0.10692036 0.0039982097 0.080010444 -0.0041868617 -0.11699417 0.19637564
-0.15473305 0.07441673 -0.07228286 -0.14744763 -0.058957428 -0.15811285 0.1156947 -0.1443735
-0.034802627 0.11447275 -0.1921706 -0.0916472 0.07275344 0.043534473 -0.054483254 -0.11597216

encoder.enc_layers.0.norm1.weight f4 [32]
00000000: 1e17 703f 1b5a 7d3f e2f9 793f 0170 783f
00000010: d78d 783f cc7c 7a3f b365 743f 20fc 763f
00000020: dc18 743f 6d2b 763f 1586 7c3f 9522 793f
00000030: 2413 7c3f 8b83 833f ca5f 823f f243 843f
00000040: ccfb 783f 5e91 783f 0ce5 743f b1a1 823f
00000050: ce44 7f3f 6f0a 7f3f fa29 813f 619e 7c3f
00000060: 81ac 7f3f 17e4 7e3f 33a4 803f 2cd1 803f
00000070: 82c8 783f 53db 743f 7a74 773f 9f07 823f
0.93785274 0.98965615 0.97646916 0.97045904 0.9709143 0.97846675 0.9546768 0.9647846
0.9535043 0.9616001 0.9864209 0.97318393 0.98466706 1.0274519 1.0185483 1.0333235
0.9725921 0.9709681 0.95662 1.0205594 0.9971436 0.99625295 1.0090935 0.9867917
0.99872595 0.9956679 1.005011 1.0063834 0.9718095 0.9564716 0.96662104 1.0158576

encoder.enc_layers.0.norm1.bias f4 [32]
00000000: c588 5f3c 691f 96bb ff57 efbb 6b19 c33b
00000010: 8181 4b3c b057 2f3c 0d85 72b8 8d88 1bbc
00000020: 1aa0 9c3c 8019 90bb a9d8 dc3b 4ebf b83a
00000030: 5c2f 1cbc 3d98 36bb b794 f53b 2588 fbbb
00000040: 25a8 163b c0d2 183c 926c ddba edf7 453c
00000050: 6b34 8a3b dfb2 a6bb 0711 ed3a 0c6a bfbc
00000060: d130 d13b 34d4 9cbc bfdf 16bb bc87 1bbc
00000070: 93b8 343c 17b4 ec3c 90e1 05bc 2384 4bbc
0.013643448 -0.004581381 -0.007304191 0.005953958 0.012421013 0.010702059 -5.782121e-05 -0.009493005
0.019119311 -0.004397571 0.006739695 0.0014095099 -0.009532776 -0.0027861737 0.007494535 -0.007676142
0.0022988406 0.00932759 -0.0016893318 0.012083036 0.0042176745 -0.005087241 0.001808674 -0.023365997
0.006383993 -0.019144155 -0.0023021547 -0.009492811 0.011030334 0.028894467 -0.008171454 -0.012421641

encoder.enc_layers.0.norm2.weight f4 [32]
00000000: ff5a 723f 746f 783f 01fe 7d3f bb8e 7b3f
00000010: 8561 753f b0c3 7c3f 135c 763f dfa9 763f
00000020: 9f45 713f 77ef 753f cb5c 7b3f 4ffa 793f
00000030: 8e9c 7d3f 2fe4 823f a745 823f 8577 7e3f
00000040: d445 743f 4d65 773f b54b 743f 26af 813f
00000050: 5469 7a3f 9e2c 7d3f 4d0b 803f 3ce1 7d3f
00000060: 7fd9 7c3f 48f2 7b3f 405a 7f3f c83b 803f
00000070: 0492 7b3f f775 793f 0a99 803f 36ce 813f
0.946701 0.97045064 0.99215704 0.98264664 0.9585193 0.98736095 0.96234244 0.9635295
0.9424686 0.9606852 0.98188466 0.97647566 0.9906701 1.0225886 1.0177506 0.9940112
0.9541905 0.9663895 0.9542802 1.0131576 0.9781697 0.98896205 1.0003449 0.99171805
0.9876937 0.98416567 0.99747086 1.0018244 0.9826968 0.97445625 1.0046704 1.0141056

encoder.enc_layers.0.norm2.bias f4 [32]
00000000: 866a 663b e076 173b 9354 dfbb 7d47 483b
00000010: ae5b 8fb9 c8f0 433b b978 9c3a 7d66 483c
00000020: 73b9 e0bb b193 a4bb 398f c1bb 7c1b fc3a
00000030: 6556 2dbc 3cff 21bc 75c3 173c 22d0 c9bb
00000040: 553a 173b 9827 0b3a 9330 39bc 17e1 093c
00000050: da49 6f3b ed36 6238 8e12 3fbc 6d94 05bc
00000060: 83b8 e73b 4cd0 0dbc 7049 313c cd49 33bc
00000070: f817 39bb 189c 683a a6f5 0c3b 306e f6bb
0.0035158708 0.0023111627 -0.006815502 0.0030560188 -0.00027343392 0.0029898155 0.0011937834 0.012231466
-0.006858045 -0.005022489 -0.005906966 0.0019234265 -0.01057968 -0.009887513 0.009262909 -0.0061588446
0.002307554 0.0005308329 -0.011303085 0.008415482 0.0036512525 5.3933752e-05 -0.011662139 -0.008153063
0.007071556 -0.008655619 0.0108207315 -0.010942888 -0.0028243046 0.00088733574 0.0021508723 -0.0075204596
